Model61.1_int8.tflite (tflite, 911296 bytes, 77 tensors)

Model61.1/decoder_0_0_depth/depthwise/ReadVariableOp i1 [1, 3, 3, 256]
0	0xfd	-3
1	0xab	-85
2	0xa1	-95
3	0xf9	-7
4	0x2f	47
5	0x81	-127
6	0x81	-127
7	0x6b	107
8	0x6b	107
9	0x23	35
10	0x42	66
11	0x90	-112
12	0x7f	127
13	0xe0	-32
14	0xb6	-74
15	0x27	39
16	0x04	4
17	0x7f	127
18	0x76	118
19	0x37	55
20	0x5d	93
21	0x17	23
22	0x6d	109
23	0x0b	11
24	0x99	-103
25	0x67	103
26	0x81	-127
27	0x22	34
28	0xb8	-72
29	0xc1	-63
30	0x7f	127
31	0x05	5
32	0xa2	-94
33	0x25	37
34	0xf0	-16
35	0xac	-84
36	0x1c	28
37	0x9c	-100
38	0x64	100
39	0xf8	-8
40	0x0a	10
41	0x81	-127
42	0xe3	-29
43	0x81	-127
44	0xa1	-95
45	0x3b	59
46	0x1d	29
47	0x7f	127
48	0x3a	58
49	0x84	-124
50	0xbd	-67
51	0x1f	31
52	0x7f	127
53	0xbc	-68
54	0xa0	-96
55	0xc2	-62
56	0x81	-127
57	0x81	-127
58	0x5c	92
59	0x39	57
60	0x7f	127
61	0x7f	127
62	0xde	-34
63	0x47	71
64	0x9a	-102
65	0x51	81
66	0xc4	-60
67	0x58	88
68	0x7f	127
69	0x0e	14
70	0x81	-127
71	0x81	-127
72	0xf1	-15
73	0x38	56
74	0x2c	44
75	0xb4	-76
76	0x07	7
77	0x14	20
78	0x66	102
79	0xb8	-72
80	0x7f	127
81	0x21	33
82	0xfb	-5
83	0x88	-120
84	0x51	81
85	0xd3	-45
86	0x42	66
87	0x7f	127
88	0x7f	127
89	0x5b	91
90	0xfa	-6
91	0x81	-127
92	0x7f	127
93	0x70	112
94	0x81	-127
95	0x83	-125
96	0x18	24
97	0x35	53
98	0xd4	-44
99	0x41	65
100	0x41	65
101	0xa7	-89
102	0x41	65
103	0x7f	127
104	0x09	9
105	0x81	-127
106	0x1a	26
107	0x81	-127
108	0xbc	-68
109	0x81	-127
110	0x35	53
111	0xb8	-72
112	0xa7	-89
113	0x77	119
114	0xf2	-14
115	0xde	-34
116	0x00	0
117	0xc5	-59
118	0x82	-126
119	0x36	54
120	0x7f	127
121	0xa9	-87
122	0x81	-127
123	0x7f	127
124	0x7f	127
125	0x35	53
126	0x0e	14
127	0x7f	127
128	0x79	121
129	0x7f	127
130	0xde	-34
131	0x47	71
132	0x7f	127
133	0x81	-127
134	0x2d	45
135	0xe4	-28
136	0x0f	15
137	0x7f	127
138	0x0f	15
139	0x81	-127
140	0xd8	-40
141	0xac	-84
142	0x47	71
143	0x5b	91
144	0x07	7
145	0x81	-127
146	0x20	32
147	0x7f	127
148	0x7f	127
149	0x7f	127
150	0x81	-127
151	0xf3	-13
152	0x81	-127
153	0x20	32
154	0x7f	127
155	0x03	3
156	0x81	-127
157	0x7f	127
158	0x81	-127
159	0x17	23
160	0xa8	-88
161	0x2e	46
162	0xf4	-12
163	0x7f	127
164	0xeb	-21
165	0xb3	-77
166	0x2a	42
167	0x7f	127
168	0x12	18
169	0x3f	63
170	0x91	-111
171	0x81	-127
172	0x08	8
173	0x70	112
174	0xd6	-42
175	0x3e	62
176	0x7f	127
177	0x61	97
178	0xdc	-36
179	0x51	81
180	0x66	102
181	0x10	16
182	0xda	-38
183	0xa7	-89
184	0xc1	-63
185	0x3e	62
186	0x29	41
187	0x88	-120
188	0x32	50
189	0x1c	28
190	0xa1	-95
191	0x7f	127
192	0x0d	13
193	0x31	49
194	0x0e	14
195	0x7f	127
196	0x17	23
197	0xea	-22
198	0xbc	-68
199	0x2a	42
200	0x98	-104
201	0xdd	-35
202	0x7f	127
203	0x7f	127
204	0x81	-127
205	0xa7	-89
206	0x55	85
207	0x18	24
208	0x09	9
209	0xae	-82
210	0x81	-127
211	0xc7	-57
212	0x81	-127
213	0xe5	-27
214	0x81	-127
215	0x6c	108
216	0xdd	-35
217	0xc6	-58
218	0x7f	127
219	0x81	-127
220	0xf3	-13
221	0x45	69
222	0xbd	-67
223	0x76	118
224	0x81	-127
225	0x81	-127
226	0xc2	-62
227	0xa1	-95
228	0x7f	127
229	0xbb	-69
230	0x12	18
231	0x81	-127
232	0x7f	127
233	0x87	-121
234	0xee	-18
235	0x37	55
236	0xbd	-67
237	0xac	-84
238	0x15	21
239	0x81	-127
240	0x81	-127
241	0x0a	10
242	0xb1	-79
243	0x5e	94
244	0x4c	76
245	0xbc	-68
246	0xc8	-56
247	0x16	22
248	0x7f	127
249	0x7f	127
250	0x7f	127
251	0x20	32
252	0xdf	-33
253	0x7f	127
254	0x23	35
255	0xb8	-72

Model61.1/decoder_0_0_expand/Conv2D/ReadVariableOp i1 [256, 1, 1, 256]
0	0xef	-17
1	0x1a	26
2	0xd3	-45
3	0x4a	74
4	0xc6	-58
5	0x38	56
6	0x06	6
7	0x2b	43
8	0x21	33
9	0x08	8
10	0x0a	10
11	0xdb	-37
12	0xd4	-44
13	0xf9	-7
14	0xc1	-63
15	0x39	57
16	0xa3	-93
17	0x15	21
18	0xda	-38
19	0xfa	-6
20	0x2c	44
21	0x0a	10
22	0xf8	-8
23	0xf7	-9
24	0xec	-20
25	0x1c	28
26	0x09	9
27	0xf3	-13
28	0x36	54
29	0x14	20
30	0xd2	-46
31	0x0f	15
32	0xff	-1
33	0x32	50
34	0x0d	13
35	0x33	51
36	0x0f	15
37	0x00	0
38	0x14	20
39	0x4e	78
40	0xe2	-30
41	0xe0	-32
42	0x24	36
43	0x9d	-99
44	0xcf	-49
45	0xe7	-25
46	0xb8	-72
47	0xb4	-76
48	0x0d	13
49	0x4d	77
50	0x07	7
51	0xa9	-87
52	0x27	39
53	0xfe	-2
54	0xee	-18
55	0x15	21
56	0xd7	-41
57	0x2c	44
58	0x21	33
59	0x12	18
60	0x09	9
61	0xf7	-9
62	0xff	-1
63	0xd6	-42
64	0xed	-19
65	0xd6	-42
66	0x4d	77
67	0x1c	28
68	0xf5	-11
69	0x1c	28
70	0xe9	-23
71	0x3c	60
72	0x6d	109
73	0x07	7
74	0xdf	-33
75	0x1e	30
76	0xee	-18
77	0x07	7
78	0x0d	13
79	0xe6	-26
80	0xff	-1
81	0xba	-70
82	0xd7	-41
83	0xf6	-10
84	0xe5	-27
85	0xe6	-26
86	0xd4	-44
87	0xfc	-4
88	0x06	6
89	0x27	39
90	0x0d	13
91	0x2a	42
92	0x0c	12
93	0xfa	-6
94	0xf2	-14
95	0xd4	-44
96	0xec	-20
97	0xf3	-13
98	0x01	1
99	0x4d	77
100	0x1b	27
101	0xf4	-12
102	0xf0	-16
103	0xca	-54
104	0xfa	-6
105	0xe6	-26
106	0x24	36
107	0xee	-18
108	0xfc	-4
109	0x44	68
110	0xe4	-28
111	0x2e	46
112	0x1b	27
113	0xee	-18
114	0x08	8
115	0xfa	-6
116	0x11	17
117	0xf2	-14
118	0xe0	-32
119	0x16	22
120	0xda	-38
121	0x18	24
122	0x39	57
123	0x19	25
124	0x23	35
125	0xf7	-9
126	0x90	-112
127	0x47	71
128	0xf9	-7
129	0xd0	-48
130	0x11	17
131	0x1f	31
132	0x2d	45
133	0x18	24
134	0x54	84
135	0xcc	-52
136	0x05	5
137	0x26	38
138	0x05	5
139	0x55	85
140	0xf0	-16
141	0x53	83
142	0x3a	58
143	0x3c	60
144	0xf7	-9
145	0xc9	-55
146	0xf4	-12
147	0x06	6
148	0x51	81
149	0x29	41
150	0x2f	47
151	0x16	22
152	0x16	22
153	0x0d	13
154	0xd9	-39
155	0x20	32
156	0xd6	-42
157	0x04	4
158	0x21	33
159	0x2b	43
160	0xeb	-21
161	0x23	35
162	0xab	-85
163	0xf1	-15
164	0x29	41
165	0x44	68
166	0x2e	46
167	0xf0	-16
168	0x0f	15
169	0x00	0
170	0x11	17
171	0xe7	-25
172	0x1b	27
173	0x01	1
174	0x24	36
175	0x34	52
176	0xd5	-43
177	0x12	18
178	0x1a	26
179	0x01	1
180	0x11	17
181	0xfb	-5
182	0xf4	-12
183	0xf8	-8
184	0x39	57
185	0xff	-1
186	0xfb	-5
187	0x01	1
188	0x55	85
189	0xcb	-53
190	0xb9	-71
191	0xe4	-28
192	0xff	-1
193	0x18	24
194	0xca	-54
195	0x28	40
196	0xc8	-56
197	0xd7	-41
198	0xcc	-52
199	0x0c	12
200	0x10	16
201	0xec	-20
202	0xea	-22
203	0x33	51
204	0xf9	-7
205	0xea	-22
206	0x59	89
207	0xf6	-10
208	0xce	-50
209	0x34	52
210	0x28	40
211	0xf3	-13
212	0x7f	127
213	0x6f	111
214	0x20	32
215	0xd7	-41
216	0xcf	-49
217	0x55	85
218	0x02	2
219	0xf7	-9
220	0xe7	-25
221	0xe8	-24
222	0x09	9
223	0xd8	-40
224	0x1a	26
225	0xd4	-44
226	0x32	50
227	0x5f	95
228	0xe6	-26
229	0xef	-17
230	0x04	4
231	0x4c	76
232	0xf2	-14
233	0x07	7
234	0xbe	-66
235	0x05	5
236	0x30	48
237	0x21	33
238	0xfa	-6
239	0xf5	-11
240	0xe4	-28
241	0xd7	-41
242	0x14	20
243	0xd2	-46
244	0xe5	-27
245	0xd9	-39
246	0xe4	-28
247	0x1e	30
248	0xbf	-65
249	0xe5	-27
250	0x01	1
251	0xdd	-35
252	0xe6	-26
253	0xed	-19
254	0x8c	-116
255	0x2b	43

Model61.1/decoder_0_0_project/Conv2D/ReadVariableOp i1 [256, 1, 1, 256]
0	0xfc	-4
1	0x0e	14
2	0x0b	11
3	0xe8	-24
4	0xf1	-15
5	0xb5	-75
6	0xa8	-88
7	0xa7	-89
8	0xff	-1
9	0x4d	77
10	0xb6	-74
11	0x15	21
12	0xfc	-4
13	0x48	72
14	0xf2	-14
15	0xd7	-41
16	0xef	-17
17	0xdc	-36
18	0xd7	-41
19	0xe5	-27
20	0xbf	-65
21	0x03	3
22	0xc8	-56
23	0xba	-70
24	0xea	-22
25	0xda	-38
26	0x1d	29
27	0xc7	-57
28	0x00	0
29	0x3d	61
30	0x04	4
31	0xea	-22
32	0x26	38
33	0x02	2
34	0xc0	-64
35	0x1e	30
36	0x4d	77
37	0xf7	-9
38	0xe8	-24
39	0x24	36
40	0xd1	-47
41	0xfa	-6
42	0xb2	-78
43	0xe4	-28
44	0x0a	10
45	0xfd	-3
46	0x01	1
47	0x9f	-97
48	0xdb	-37
49	0x19	25
50	0x1d	29
51	0x1f	31
52	0xde	-34
53	0xe0	-32
54	0x2d	45
55	0x1b	27
56	0xd0	-48
57	0xfd	-3
58	0xd0	-48
59	0x38	56
60	0xcd	-51
61	0x54	84
62	0x57	87
63	0xe3	-29
64	0xed	-19
65	0x07	7
66	0x1c	28
67	0x20	32
68	0xd4	-44
69	0xe4	-28
70	0xd7	-41
71	0x0d	13
72	0xe9	-23
73	0xa7	-89
74	0xe5	-27
75	0x2e	46
76	0x20	32
77	0x03	3
78	0x03	3
79	0x33	51
80	0xba	-70
81	0x08	8
82	0x01	1
83	0x2f	47
84	0x4c	76
85	0xbe	-66
86	0xd7	-41
87	0xf7	-9
88	0x18	24
89	0xdd	-35
90	0x22	34
91	0x36	54
92	0x2f	47
93	0xf5	-11
94	0x24	36
95	0xb5	-75
96	0x14	20
97	0x9f	-97
98	0xe1	-31
99	0xef	-17
100	0x22	34
101	0x03	3
102	0x17	23
103	0x01	1
104	0xf5	-11
105	0xe1	-31
106	0xc9	-55
107	0xe5	-27
108	0x06	6
109	0x1b	27
110	0x0a	10
111	0x25	37
112	0xb4	-76
113	0x1c	28
114	0xf8	-8
115	0x13	19
116	0x02	2
117	0xe2	-30
118	0xef	-17
119	0xe0	-32
120	0x2d	45
121	0xfe	-2
122	0x00	0
123	0xc3	-61
124	0xe0	-32
125	0xf3	-13
126	0xfd	-3
127	0xda	-38
128	0xd6	-42
129	0xa1	-95
130	0x1a	26
131	0xdb	-37
132	0x12	18
133	0x42	66
134	0x02	2
135	0x38	56
136	0xea	-22
137	0xe8	-24
138	0xf9	-7
139	0xfd	-3
140	0x16	22
141	0xd7	-41
142	0x0b	11
143	0xd6	-42
144	0x23	35
145	0x12	18
146	0xe4	-28
147	0x00	0
148	0x22	34
149	0xe8	-24
150	0x1c	28
151	0x17	23
152	0x0b	11
153	0x19	25
154	0xb2	-78
155	0x24	36
156	0x1a	26
157	0xf2	-14
158	0xff	-1
159	0x18	24
160	0xe0	-32
161	0xd4	-44
162	0xeb	-21
163	0xc7	-57
164	0x24	36
165	0x29	41
166	0x21	33
167	0x22	34
168	0xcc	-52
169	0x7f	127
170	0xdf	-33
171	0x35	53
172	0xce	-50
173	0xe2	-30
174	0x2d	45
175	0xce	-50
176	0x22	34
177	0xf7	-9
178	0xeb	-21
179	0x08	8
180	0xe8	-24
181	0xfd	-3
182	0x2e	46
183	0xc3	-61
184	0xea	-22
185	0xc6	-58
186	0x2a	42
187	0xfe	-2
188	0xf3	-13
189	0xda	-38
190	0x01	1
191	0xf8	-8
192	0xfa	-6
193	0x02	2
194	0x26	38
195	0xbd	-67
196	0x46	70
197	0xe9	-23
198	0x25	37
199	0x0d	13
200	0x04	4
201	0x0d	13
202	0xd5	-43
203	0xe9	-23
204	0xed	-19
205	0xb7	-73
206	0x96	-106
207	0x1a	26
208	0x26	38
209	0xeb	-21
210	0x25	37
211	0x03	3
212	0xe6	-26
213	0x10	16
214	0xf9	-7
215	0xe3	-29
216	0xfa	-6
217	0x05	5
218	0xe5	-27
219	0x51	81
220	0xd3	-45
221	0xd3	-45
222	0x49	73
223	0x03	3
224	0xc2	-62
225	0xb3	-77
226	0xf0	-16
227	0xfb	-5
228	0x2a	42
229	0xef	-17
230	0x28	40
231	0xfd	-3
232	0x28	40
233	0xe5	-27
234	0xf9	-7
235	0xcd	-51
236	0x37	55
237	0x0f	15
238	0xbc	-68
239	0xef	-17
240	0xf0	-16
241	0xd0	-48
242	0x64	100
243	0x37	55
244	0xf9	-7
245	0xf8	-8
246	0x40	64
247	0xfc	-4
248	0xc7	-57
249	0x0d	13
250	0xee	-18
251	0x14	20
252	0x08	8
253	0xbc	-68
254	0xcc	-52
255	0x1f	31

Model61.1/decoder_0_1_conv/Conv2D/ReadVariableOp i1 [128, 1, 1, 128]
0	0x02	2
1	0xe9	-23
2	0xca	-54
3	0x7f	127
4	0xee	-18
5	0x56	86
6	0xd9	-39
7	0xc6	-58
8	0x2e	46
9	0x33	51
10	0xaa	-86
11	0x7a	122
12	0xe3	-29
13	0x3f	63
14	0x1d	29
15	0xde	-34
16	0xc6	-58
17	0xfb	-5
18	0xd3	-45
19	0x94	-108
20	0x72	114
21	0x1c	28
22	0x19	25
23	0x27	39
24	0xe6	-26
25	0x17	23
26	0xe1	-31
27	0xde	-34
28	0xe2	-30
29	0x38	56
30	0xeb	-21
31	0x33	51
32	0x24	36
33	0x08	8
34	0x17	23
35	0x02	2
36	0xc8	-56
37	0x60	96
38	0x0b	11
39	0xee	-18
40	0xd2	-46
41	0xdd	-35
42	0xc2	-62
43	0x2c	44
44	0x35	53
45	0xd4	-44
46	0xd7	-41
47	0x37	55
48	0xdc	-36
49	0x65	101
50	0x0b	11
51	0xf3	-13
52	0xa8	-88
53	0x0d	13
54	0x3e	62
55	0x02	2
56	0xf2	-14
57	0x09	9
58	0x50	80
59	0xed	-19
60	0xdf	-33
61	0x12	18
62	0xbf	-65
63	0x15	21
64	0xad	-83
65	0x38	56
66	0x35	53
67	0x17	23
68	0xfb	-5
69	0x31	49
70	0x2c	44
71	0xd7	-41
72	0x16	22
73	0x2f	47
74	0xc5	-59
75	0x01	1
76	0xef	-17
77	0x24	36
78	0x37	55
79	0x68	104
80	0xc4	-60
81	0xfc	-4
82	0x29	41
83	0x0b	11
84	0xde	-34
85	0xb0	-80
86	0xe7	-25
87	0xd2	-46
88	0x34	52
89	0x13	19
90	0x0f	15
91	0x15	21
92	0xff	-1
93	0xb8	-72
94	0xd5	-43
95	0xb0	-80
96	0xdd	-35
97	0x0e	14
98	0x25	37
99	0xed	-19
100	0xf2	-14
101	0xfd	-3
102	0x26	38
103	0xd7	-41
104	0x37	55
105	0xdd	-35
106	0x33	51
107	0xe9	-23
108	0xdf	-33
109	0xd5	-43
110	0xbe	-66
111	0x9a	-102
112	0xe7	-25
113	0x04	4
114	0xfa	-6
115	0xfa	-6
116	0xd0	-48
117	0xbf	-65
118	0x6a	106
119	0x0a	10
120	0xa6	-90
121	0xe7	-25
122	0xbb	-69
123	0x04	4
124	0x1e	30
125	0x0a	10
126	0x05	5
127	0x1e	30
128	0x08	8
129	0x3a	58
130	0xdc	-36
131	0x70	112
132	0xdb	-37
133	0xa8	-88
134	0xef	-17
135	0xd3	-45
136	0xdf	-33
137	0x2c	44
138	0xaa	-86
139	0xea	-22
140	0x1e	30
141	0x16	22
142	0x26	38
143	0x1c	28
144	0x5b	91
145	0x01	1
146	0xfe	-2
147	0x8d	-115
148	0x76	118
149	0xf1	-15
150	0xc5	-59
151	0xf3	-13
152	0x9e	-98
153	0x0c	12
154	0xea	-22
155	0xcc	-52
156	0xe2	-30
157	0x37	55
158	0xfa	-6
159	0xec	-20
160	0xeb	-21
161	0x25	37
162	0xf7	-9
163	0x2b	43
164	0x31	49
165	0x70	112
166	0x1e	30
167	0x36	54
168	0xfd	-3
169	0xe9	-23
170	0xc3	-61
171	0x08	8
172	0x60	96
173	0xca	-54
174	0xf7	-9
175	0xcf	-49
176	0xb6	-74
177	0xfc	-4
178	0x0a	10
179	0x4f	79
180	0xd7	-41
181	0x05	5
182	0x62	98
183	0xf8	-8
184	0xba	-70
185	0x30	48
186	0x1b	27
187	0x1c	28
188	0xb9	-71
189	0x22	34
190	0x59	89
191	0x49	73
192	0xfb	-5
193	0xd9	-39
194	0x0b	11
195	0xe2	-30
196	0x59	89
197	0xd3	-45
198	0x27	39
199	0x36	54
200	0x23	35
201	0xf7	-9
202	0xed	-19
203	0xce	-50
204	0x13	19
205	0x33	51
206	0xeb	-21
207	0x40	64
208	0xda	-38
209	0xdb	-37
210	0xd8	-40
211	0x81	-127
212	0x2a	42
213	0x0e	14
214	0xf0	-16
215	0xfd	-3
216	0xdf	-33
217	0x12	18
218	0x33	51
219	0x2d	45
220	0x2e	46
221	0x53	83
222	0xd1	-47
223	0xdc	-36
224	0xc6	-58
225	0xfb	-5
226	0x42	66
227	0xc4	-60
228	0xe7	-25
229	0xd7	-41
230	0x38	56
231	0x35	53
232	0x01	1
233	0xea	-22
234	0xe7	-25
235	0xf8	-8
236	0x22	34
237	0xd1	-47
238	0x12	18
239	0xd1	-47
240	0xd5	-43
241	0xdc	-36
242	0x4d	77
243	0x2c	44
244	0x27	39
245	0xa5	-91
246	0x18	24
247	0x1f	31
248	0xd7	-41
249	0xce	-50
250	0xde	-34
251	0xed	-19
252	0x19	25
253	0x1c	28
254	0xc4	-60
255	0xcb	-53

Model61.1/decoder_0_1_depth/depthwise/ReadVariableOp i1 [1, 3, 3, 128]
0	0x7f	127
1	0x12	18
2	0xb4	-76
3	0x21	33
4	0xad	-83
5	0xe7	-25
6	0x2f	47
7	0x7f	127
8	0x43	67
9	0x03	3
10	0x58	88
11	0xfb	-5
12	0x14	20
13	0x22	34
14	0x7f	127
15	0x1a	26
16	0x1e	30
17	0x81	-127
18	0xa7	-89
19	0x2b	43
20	0x5b	91
21	0x81	-127
22	0xfe	-2
23	0x81	-127
24	0xd1	-47
25	0x96	-106
26	0xb3	-77
27	0x9b	-101
28	0x16	22
29	0x7f	127
30	0xa2	-94
31	0x72	114
32	0xd0	-48
33	0x67	103
34	0x55	85
35	0x25	37
36	0xc1	-63
37	0x32	50
38	0x81	-127
39	0x26	38
40	0x20	32
41	0x33	51
42	0x81	-127
43	0x7f	127
44	0xbb	-69
45	0x1f	31
46	0x6c	108
47	0x3e	62
48	0x1c	28
49	0x7f	127
50	0x83	-125
51	0xfe	-2
52	0x7f	127
53	0x7f	127
54	0x38	56
55	0x81	-127
56	0x92	-110
57	0xb2	-78
58	0x81	-127
59	0xd9	-39
60	0x4d	77
61	0xb1	-79
62	0xc2	-62
63	0xa5	-91
64	0x81	-127
65	0x06	6
66	0x64	100
67	0xf9	-7
68	0x82	-126
69	0xed	-19
70	0x76	118
71	0x30	48
72	0xf7	-9
73	0x7f	127
74	0x11	17
75	0x49	73
76	0x7a	122
77	0x69	105
78	0xcd	-51
79	0xea	-22
80	0x3d	61
81	0x54	84
82	0x02	2
83	0x9e	-98
84	0x81	-127
85	0x04	4
86	0xdd	-35
87	0x7f	127
88	0x7f	127
89	0xe9	-23
90	0x81	-127
91	0xa8	-88
92	0xf0	-16
93	0x7f	127
94	0x97	-105
95	0x81	-127
96	0x7f	127
97	0xf2	-14
98	0x7f	127
99	0xc1	-63
100	0xd0	-48
101	0xfc	-4
102	0x7f	127
103	0x7f	127
104	0x7f	127
105	0xb7	-73
106	0x45	69
107	0x81	-127
108	0x05	5
109	0xda	-38
110	0x81	-127
111	0x75	117
112	0x5a	90
113	0xa5	-91
114	0x85	-123
115	0x5b	91
116	0xc3	-61
117	0x81	-127
118	0xd1	-47
119	0x61	97
120	0x7f	127
121	0x81	-127
122	0x1b	27
123	0x28	40
124	0xc5	-59
125	0x7f	127
126	0x1e	30
127	0x7f	127
128	0x13	19
129	0x5e	94
130	0xc1	-63
131	0xd4	-44
132	0xcf	-49
133	0xe4	-28
134	0xc1	-63
135	0xfe	-2
136	0xcb	-53
137	0xb4	-76
138	0x11	17
139	0x5b	91
140	0x0c	12
141	0xf2	-14
142	0xec	-20
143	0x37	55
144	0xf0	-16
145	0xc1	-63
146	0xf0	-16
147	0xdb	-37
148	0x0b	11
149	0xa1	-95
150	0xdf	-33
151	0xb6	-74
152	0x33	51
153	0x0f	15
154	0xeb	-21
155	0xb2	-78
156	0xd9	-39
157	0x36	54
158	0xe5	-27
159	0x2d	45
160	0x2a	42
161	0xec	-20
162	0x0d	13
163	0x07	7
164	0x0e	14
165	0x7f	127
166	0xcc	-52
167	0x23	35
168	0xf6	-10
169	0x32	50
170	0xb5	-75
171	0x2e	46
172	0x34	52
173	0xd9	-39
174	0x1a	26
175	0x46	70
176	0x2f	47
177	0x00	0
178	0xd8	-40
179	0xf3	-13
180	0x2a	42
181	0x59	89
182	0xcc	-52
183	0xad	-83
184	0x8c	-116
185	0x9b	-101
186	0xbc	-68
187	0x03	3
188	0xac	-84
189	0x2c	44
190	0x0b	11
191	0x9c	-100
192	0xbb	-69
193	0x24	36
194	0x62	98
195	0xf0	-16
196	0xb9	-71
197	0xc4	-60
198	0x34	52
199	0x3d	61
200	0x15	21
201	0xc7	-57
202	0xef	-17
203	0x76	118
204	0x10	16
205	0x21	33
206	0xc1	-63
207	0x0e	14
208	0x04	4
209	0x1f	31
210	0x12	18
211	0xc4	-60
212	0x02	2
213	0x7f	127
214	0xe3	-29
215	0xf3	-13
216	0xdf	-33
217	0xd9	-39
218	0xcc	-52
219	0xfa	-6
220	0xd7	-41
221	0x00	0
222	0x12	18
223	0xf2	-14
224	0x41	65
225	0xf5	-11
226	0xb5	-75
227	0xc1	-63
228	0x06	6
229	0xbf	-65
230	0x05	5
231	0x21	33
232	0x6b	107
233	0xff	-1
234	0x2f	47
235	0x96	-106
236	0x45	69
237	0x81	-127
238	0xd6	-42
239	0x12	18
240	0x2c	44
241	0x17	23
242	0x09	9
243	0x32	50
244	0xce	-50
245	0x87	-121
246	0x32	50
247	0xe0	-32
248	0x1d	29
249	0xb4	-76
250	0x42	66
251	0x81	-127
252	0x35	53
253	0xef	-17
254	0x81	-127
255	0x21	33

Model61.1/decoder_0_1_expand/Conv2D/ReadVariableOp i1 [128, 1, 1, 256]
0	0x03	3
1	0x1b	27
2	0xf2	-14
3	0xd1	-47
4	0x81	-127
5	0xf3	-13
6	0xf2	-14
7	0x25	37
8	0xe5	-27
9	0x04	4
10	0xff	-1
11	0x0b	11
12	0xe4	-28
13	0x02	2
14	0xfc	-4
15	0x02	2
16	0xf8	-8
17	0x25	37
18	0x20	32
19	0x19	25
20	0xd4	-44
21	0xee	-18
22	0x2b	43
23	0x03	3
24	0xcf	-49
25	0xec	-20
26	0x28	40
27	0xe5	-27
28	0x1b	27
29	0x30	48
30	0xd9	-39
31	0xed	-19
32	0xea	-22
33	0xff	-1
34	0xee	-18
35	0x1a	26
36	0x07	7
37	0x1c	28
38	0x07	7
39	0x18	24
40	0x11	17
41	0xc9	-55
42	0x06	6
43	0x03	3
44	0x0a	10
45	0xff	-1
46	0x26	38
47	0x08	8
48	0xba	-70
49	0x36	54
50	0x29	41
51	0xfa	-6
52	0x25	37
53	0x34	52
54	0x0a	10
55	0x13	19
56	0xf4	-12
57	0x08	8
58	0x15	21
59	0xee	-18
60	0xe7	-25
61	0xfc	-4
62	0x2b	43
63	0xef	-17
64	0x2e	46
65	0x1a	26
66	0xfd	-3
67	0x37	55
68	0xfa	-6
69	0xf4	-12
70	0x12	18
71	0x00	0
72	0x27	39
73	0x10	16
74	0x12	18
75	0xea	-22
76	0x0e	14
77	0x51	81
78	0xea	-22
79	0x10	16
80	0xe3	-29
81	0xe9	-23
82	0x25	37
83	0xe3	-29
84	0xfc	-4
85	0x05	5
86	0x18	24
87	0xf0	-16
88	0xf4	-12
89	0xfe	-2
90	0x16	22
91	0x09	9
92	0xbe	-66
93	0x04	4
94	0x16	22
95	0x09	9
96	0xf3	-13
97	0x2a	42
98	0x04	4
99	0x2d	45
100	0xcf	-49
101	0xd5	-43
102	0xe1	-31
103	0xea	-22
104	0xf9	-7
105	0x5b	91
106	0x43	67
107	0x16	22
108	0xe9	-23
109	0x11	17
110	0x34	52
111	0x25	37
112	0x11	17
113	0xf1	-15
114	0xe9	-23
115	0x1b	27
116	0xe4	-28
117	0x24	36
118	0xda	-38
119	0x02	2
120	0xed	-19
121	0xe7	-25
122	0x1c	28
123	0x2f	47
124	0x0d	13
125	0xf5	-11
126	0x08	8
127	0x14	20
128	0xe7	-25
129	0x11	17
130	0x0d	13
131	0x2d	45
132	0x1c	28
133	0x0c	12
134	0x22	34
135	0xcf	-49
136	0x4a	74
137	0x00	0
138	0xec	-20
139	0x28	40
140	0x15	21
141	0x43	67
142	0xdb	-37
143	0x2e	46
144	0x07	7
145	0xee	-18
146	0xf4	-12
147	0x0a	10
148	0x1f	31
149	0xfa	-6
150	0xef	-17
151	0xf9	-7
152	0x0c	12
153	0xf4	-12
154	0xf0	-16
155	0x00	0
156	0x16	22
157	0xf4	-12
158	0x13	19
159	0x07	7
160	0x2a	42
161	0x26	38
162	0xf6	-10
163	0x15	21
164	0xd1	-47
165	0x24	36
166	0xd4	-44
167	0xf0	-16
168	0xe7	-25
169	0xf2	-14
170	0x07	7
171	0x10	16
172	0x05	5
173	0xff	-1
174	0xff	-1
175	0x09	9
176	0x02	2
177	0x36	54
178	0x0d	13
179	0xe3	-29
180	0x20	32
181	0xff	-1
182	0xdf	-33
183	0x0a	10
184	0x0e	14
185	0x05	5
186	0x28	40
187	0xc8	-56
188	0xc9	-55
189	0x2e	46
190	0xd6	-42
191	0x19	25
192	0x0e	14
193	0x20	32
194	0xe7	-25
195	0x1a	26
196	0xef	-17
197	0x0d	13
198	0xe7	-25
199	0x1c	28
200	0xec	-20
201	0xf3	-13
202	0xf4	-12
203	0x08	8
204	0xe8	-24
205	0x11	17
206	0x1e	30
207	0xf2	-14
208	0xfd	-3
209	0x1b	27
210	0xe5	-27
211	0xce	-50
212	0xf1	-15
213	0xf7	-9
214	0x09	9
215	0xdd	-35
216	0xd5	-43
217	0x32	50
218	0x01	1
219	0x1b	27
220	0x0a	10
221	0x03	3
222	0xfb	-5
223	0xed	-19
224	0x1e	30
225	0xbe	-66
226	0x0e	14
227	0xda	-38
228	0x3b	59
229	0xbc	-68
230	0xc7	-57
231	0x05	5
232	0xe3	-29
233	0xe7	-25
234	0xdd	-35
235	0xf3	-13
236	0x36	54
237	0xe1	-31
238	0xe3	-29
239	0xf3	-13
240	0xe8	-24
241	0x09	9
242	0xdc	-36
243	0xf6	-10
244	0x0b	11
245	0x12	18
246	0x12	18
247	0x12	18
248	0x1e	30
249	0x0c	12
250	0xea	-22
251	0xb3	-77
252	0xe5	-27
253	0xeb	-21
254	0xf5	-11
255	0x07	7

Model61.1/decoder_0_1_project/Conv2D/ReadVariableOp i1 [128, 1, 1, 128]
0	0xe8	-24
1	0xef	-17
2	0x9c	-100
3	0x0c	12
4	0x6e	110
5	0x27	39
6	0xd0	-48
7	0x39	57
8	0x3e	62
9	0xe1	-31
10	0xb9	-71
11	0xe8	-24
12	0x39	57
13	0x5b	91
14	0x44	68
15	0x00	0
16	0x40	64
17	0x70	112
18	0x3b	59
19	0xd1	-47
20	0x2f	47
21	0x94	-108
22	0xb7	-73
23	0x47	71
24	0xa7	-89
25	0x3c	60
26	0xb7	-73
27	0x42	66
28	0xe7	-25
29	0xb8	-72
30	0x22	34
31	0xbd	-67
32	0xf5	-11
33	0x28	40
34	0xf2	-14
35	0xfc	-4
36	0xb4	-76
37	0xeb	-21
38	0x22	34
39	0x57	87
40	0xb3	-77
41	0xaf	-81
42	0x4f	79
43	0xaf	-81
44	0x2b	43
45	0xfc	-4
46	0xba	-70
47	0xe4	-28
48	0x01	1
49	0x30	48
50	0x1e	30
51	0xe3	-29
52	0x22	34
53	0x29	41
54	0x57	87
55	0xe5	-27
56	0x41	65
57	0xd5	-43
58	0x06	6
59	0x0a	10
60	0x0b	11
61	0x41	65
62	0x2b	43
63	0xb7	-73
64	0x28	40
65	0xac	-84
66	0x29	41
67	0xfd	-3
68	0x4e	78
69	0x47	71
70	0xe3	-29
71	0x1a	26
72	0x01	1
73	0xf1	-15
74	0xa6	-90
75	0x18	24
76	0x3e	62
77	0x3e	62
78	0x72	114
79	0x34	52
80	0x20	32
81	0xfc	-4
82	0xea	-22
83	0x05	5
84	0xf4	-12
85	0xbd	-67
86	0x27	39
87	0x7f	127
88	0x26	38
89	0x4d	77
90	0x37	55
91	0x4e	78
92	0xf8	-8
93	0x00	0
94	0xde	-34
95	0x26	38
96	0x39	57
97	0x01	1
98	0x5d	93
99	0x05	5
100	0x28	40
101	0xcd	-51
102	0x0a	10
103	0xdb	-37
104	0x06	6
105	0x4a	74
106	0x3a	58
107	0x07	7
108	0x2a	42
109	0xeb	-21
110	0x27	39
111	0x38	56
112	0x29	41
113	0x27	39
114	0x02	2
115	0x36	54
116	0x5e	94
117	0xee	-18
118	0xce	-50
119	0x28	40
120	0x0f	15
121	0x1a	26
122	0xcb	-53
123	0x40	64
124	0xc1	-63
125	0xca	-54
126	0x29	41
127	0x26	38
128	0x29	41
129	0xfb	-5
130	0xd6	-42
131	0x17	23
132	0x1a	26
133	0x4d	77
134	0x09	9
135	0x1e	30
136	0xe1	-31
137	0x19	25
138	0x1a	26
139	0x11	17
140	0x19	25
141	0xc0	-64
142	0x14	20
143	0xfa	-6
144	0x1c	28
145	0xe5	-27
146	0x1d	29
147	0xc7	-57
148	0x4e	78
149	0xf7	-9
150	0xed	-19
151	0x09	9
152	0xe1	-31
153	0xef	-17
154	0xc6	-58
155	0x3f	63
156	0xf5	-11
157	0x29	41
158	0xd6	-42
159	0xf2	-14
160	0x1c	28
161	0x09	9
162	0x0f	15
163	0x0c	12
164	0xe2	-30
165	0x25	37
166	0xfa	-6
167	0x30	48
168	0xf1	-15
169	0xc5	-59
170	0x07	7
171	0x15	21
172	0xdb	-37
173	0xb4	-76
174	0x03	3
175	0x37	55
176	0x1d	29
177	0x09	9
178	0x25	37
179	0x0d	13
180	0x24	36
181	0x13	19
182	0xfa	-6
183	0xc7	-57
184	0x4c	76
185	0xb3	-77
186	0x39	57
187	0xb8	-72
188	0xa4	-92
189	0xf5	-11
190	0xb7	-73
191	0xf2	-14
192	0x2f	47
193	0xee	-18
194	0x48	72
195	0xf5	-11
196	0x41	65
197	0xd9	-39
198	0x39	57
199	0xf1	-15
200	0x14	20
201	0xe6	-26
202	0xf9	-7
203	0x61	97
204	0xf1	-15
205	0xf1	-15
206	0x50	80
207	0x26	38
208	0xf7	-9
209	0xe1	-31
210	0xf5	-11
211	0xe2	-30
212	0x0c	12
213	0x13	19
214	0x10	16
215	0x2b	43
216	0xf1	-15
217	0x18	24
218	0x26	38
219	0xfe	-2
220	0xc8	-56
221	0x0a	10
222	0xc4	-60
223	0xf3	-13
224	0x0c	12
225	0xa8	-88
226	0x12	18
227	0xe9	-23
228	0xf1	-15
229	0x0f	15
230	0x23	35
231	0x0d	13
232	0xf6	-10
233	0x35	53
234	0xef	-17
235	0x16	22
236	0x7f	127
237	0x00	0
238	0x0c	12
239	0x79	121
240	0xe7	-25
241	0x50	80
242	0xfe	-2
243	0x41	65
244	0x25	37
245	0xc4	-60
246	0x07	7
247	0xff	-1
248	0x37	55
249	0x08	8
250	0x23	35
251	0xf9	-7
252	0xfd	-3
253	0x03	3
254	0x29	41
255	0x0b	11

Model61.1/decoder_1_0_depth/depthwise/ReadVariableOp i1 [1, 3, 3, 128]
0	0x63	99
1	0x7f	127
2	0x07	7
3	0xde	-34
4	0xdc	-36
5	0x9d	-99
6	0x7f	127
7	0x39	57
8	0xd0	-48
9	0xbe	-66
10	0xeb	-21
11	0x31	49
12	0x04	4
13	0x2f	47
14	0x03	3
15	0x11	17
16	0x7f	127
17	0x17	23
18	0xe9	-23
19	0x81	-127
20	0xba	-70
21	0x7f	127
22	0x81	-127
23	0xfd	-3
24	0x7f	127
25	0x8b	-117
26	0x62	98
27	0xb8	-72
28	0x07	7
29	0xa6	-90
30	0x49	73
31	0x0b	11
32	0xfc	-4
33	0x81	-127
34	0x7f	127
35	0x7f	127
36	0x20	32
37	0xe5	-27
38	0x0c	12
39	0x81	-127
40	0xe7	-25
41	0x05	5
42	0xcf	-49
43	0x17	23
44	0x81	-127
45	0x3d	61
46	0x96	-106
47	0xb3	-77
48	0x79	121
49	0x39	57
50	0x0f	15
51	0xbd	-67
52	0xde	-34
53	0x8e	-114
54	0x7f	127
55	0x98	-104
56	0x10	16
57	0x2e	46
58	0xcd	-51
59	0xe8	-24
60	0x40	64
61	0xd5	-43
62	0x56	86
63	0x7f	127
64	0xcb	-53
65	0x00	0
66	0x21	33
67	0x69	105
68	0x33	51
69	0x81	-127
70	0x19	25
71	0xf1	-15
72	0xe9	-23
73	0x42	66
74	0x45	69
75	0xf6	-10
76	0xc1	-63
77	0x7f	127
78	0x1d	29
79	0xdd	-35
80	0x7f	127
81	0x6b	107
82	0x50	80
83	0x40	64
84	0xa2	-94
85	0xa6	-90
86	0x1d	29
87	0xf0	-16
88	0x13	19
89	0x13	19
90	0x28	40
91	0x02	2
92	0xdc	-36
93	0x7f	127
94	0xa7	-89
95	0x47	71
96	0x27	39
97	0xe8	-24
98	0xab	-85
99	0x48	72
100	0x72	114
101	0x13	19
102	0x99	-103
103	0x47	71
104	0x7f	127
105	0xc1	-63
106	0xf7	-9
107	0x11	17
108	0x81	-127
109	0x7f	127
110	0x1f	31
111	0x8f	-113
112	0x7f	127
113	0x00	0
114	0x7f	127
115	0xeb	-21
116	0x8a	-118
117	0x81	-127
118	0x81	-127
119	0x1e	30
120	0x32	50
121	0x81	-127
122	0x81	-127
123	0x7f	127
124	0xa8	-88
125	0x8b	-117
126	0x8a	-118
127	0x02	2
128	0xf7	-9
129	0xff	-1
130	0x2b	43
131	0x07	7
132	0x7f	127
133	0xa9	-87
134	0x15	21
135	0xa1	-95
136	0x92	-110
137	0xc8	-56
138	0x81	-127
139	0x36	54
140	0x2a	42
141	0x5b	91
142	0xd6	-42
143	0xfe	-2
144	0x02	2
145	0xf5	-11
146	0xdd	-35
147	0x94	-108
148	0x9d	-99
149	0x47	71
150	0xa0	-96
151	0xf7	-9
152	0x62	98
153	0xd2	-46
154	0x7f	127
155	0x81	-127
156	0x08	8
157	0x9e	-98
158	0x28	40
159	0xeb	-21
160	0xf2	-14
161	0xc6	-58
162	0x03	3
163	0x1f	31
164	0x11	17
165	0xda	-38
166	0xf4	-12
167	0xa5	-91
168	0x1d	29
169	0x44	68
170	0x7f	127
171	0x03	3
172	0xfa	-6
173	0xe9	-23
174	0x33	51
175	0x99	-103
176	0xbb	-69
177	0xe3	-29
178	0x34	52
179	0xb6	-74
180	0xac	-84
181	0xcc	-52
182	0xf9	-7
183	0xe6	-26
184	0x81	-127
185	0xab	-85
186	0xea	-22
187	0x0b	11
188	0xfe	-2
189	0xf7	-9
190	0x4d	77
191	0x14	20
192	0xac	-84
193	0xdc	-36
194	0x9d	-99
195	0x18	24
196	0x56	86
197	0x4a	74
198	0x4f	79
199	0xcb	-53
200	0xba	-70
201	0x25	37
202	0x45	69
203	0xeb	-21
204	0x81	-127
205	0x20	32
206	0x15	21
207	0x81	-127
208	0x5c	92
209	0x1c	28
210	0x81	-127
211	0x7f	127
212	0x04	4
213	0xca	-54
214	0xce	-50
215	0xed	-19
216	0x55	85
217	0xf5	-11
218	0x5b	91
219	0xfa	-6
220	0x0b	11
221	0x20	32
222	0xcb	-53
223	0x7f	127
224	0x4f	79
225	0xfc	-4
226	0x89	-119
227	0xca	-54
228	0xbb	-69
229	0x38	56
230	0x85	-123
231	0x30	48
232	0x44	68
233	0x17	23
234	0x0a	10
235	0x11	17
236	0x99	-103
237	0x4d	77
238	0x1b	27
239	0xab	-85
240	0x4d	77
241	0xfb	-5
242	0x3f	63
243	0x17	23
244	0x8d	-115
245	0xa2	-94
246	0xad	-83
247	0x0e	14
248	0x6f	111
249	0xa4	-92
250	0xa2	-94
251	0x35	53
252	0xea	-22
253	0xbb	-69
254	0xc0	-64
255	0x13	19

Model61.1/decoder_1_0_expand/Conv2D/ReadVariableOp i1 [128, 1, 1, 256]
0	0x0e	14
1	0x17	23
2	0xea	-22
3	0xb5	-75
4	0x15	21
5	0x74	116
6	0xbe	-66
7	0xae	-82
8	0x15	21
9	0xd6	-42
10	0x2f	47
11	0x23	35
12	0x31	49
13	0xb5	-75
14	0xe0	-32
15	0xb7	-73
16	0xed	-19
17	0x83	-125
18	0x83	-125
19	0xc2	-62
20	0xe6	-26
21	0x16	22
22	0x5b	91
23	0xf9	-7
24	0xdd	-35
25	0xf6	-10
26	0xa9	-87
27	0x08	8
28	0xcb	-53
29	0xcf	-49
30	0xb1	-79
31	0xfd	-3
32	0x2e	46
33	0x51	81
34	0x0b	11
35	0xac	-84
36	0x0a	10
37	0xd2	-46
38	0xce	-50
39	0x33	51
40	0xed	-19
41	0x7f	127
42	0x0a	10
43	0xba	-70
44	0xf5	-11
45	0xe5	-27
46	0x2e	46
47	0xed	-19
48	0x0b	11
49	0xeb	-21
50	0x27	39
51	0xfe	-2
52	0xea	-22
53	0xd9	-39
54	0x04	4
55	0x07	7
56	0xf3	-13
57	0xb9	-71
58	0x27	39
59	0x06	6
60	0x0a	10
61	0xdd	-35
62	0x47	71
63	0xc8	-56
64	0xbb	-69
65	0x29	41
66	0x63	99
67	0xba	-70
68	0xf6	-10
69	0x04	4
70	0xdb	-37
71	0x57	87
72	0x26	38
73	0x05	5
74	0xc9	-55
75	0xf2	-14
76	0xd5	-43
77	0xd4	-44
78	0x2e	46
79	0xc5	-59
80	0x04	4
81	0xca	-54
82	0x1c	28
83	0x36	54
84	0xd5	-43
85	0x1b	27
86	0x23	35
87	0x28	40
88	0x41	65
89	0xa8	-88
90	0x4d	77
91	0xde	-34
92	0x1d	29
93	0x23	35
94	0xfc	-4
95	0xe8	-24
96	0x20	32
97	0xac	-84
98	0xa2	-94
99	0xe7	-25
100	0x4e	78
101	0x41	65
102	0xdd	-35
103	0x53	83
104	0xce	-50
105	0x43	67
106	0xad	-83
107	0xce	-50
108	0xd8	-40
109	0x54	84
110	0xce	-50
111	0x3c	60
112	0x48	72
113	0xe7	-25
114	0xde	-34
115	0xb7	-73
116	0x2b	43
117	0xd9	-39
118	0x34	52
119	0x3c	60
120	0xde	-34
121	0xb2	-78
122	0x12	18
123	0xd3	-45
124	0xe0	-32
125	0x22	34
126	0xee	-18
127	0x00	0
128	0xf6	-10
129	0xdb	-37
130	0x11	17
131	0x05	5
132	0xda	-38
133	0x10	16
134	0x1b	27
135	0xfb	-5
136	0x07	7
137	0x0c	12
138	0xea	-22
139	0x18	24
140	0x02	2
141	0xe7	-25
142	0xdf	-33
143	0xda	-38
144	0x0b	11
145	0xd6	-42
146	0x02	2
147	0x30	48
148	0x14	20
149	0x0d	13
150	0x28	40
151	0x0f	15
152	0x24	36
153	0xf4	-12
154	0xe2	-30
155	0x0d	13
156	0x1a	26
157	0x06	6
158	0xea	-22
159	0xe8	-24
160	0x38	56
161	0xd5	-43
162	0x27	39
163	0x13	19
164	0x36	54
165	0x11	17
166	0x0d	13
167	0xe0	-32
168	0x1f	31
169	0x2e	46
170	0x20	32
171	0xdb	-37
172	0x03	3
173	0xec	-20
174	0xf5	-11
175	0x0f	15
176	0xec	-20
177	0xf1	-15
178	0xe0	-32
179	0x0f	15
180	0xfa	-6
181	0xc6	-58
182	0xf6	-10
183	0xd5	-43
184	0x22	34
185	0x34	52
186	0x17	23
187	0x25	37
188	0xd4	-44
189	0x10	16
190	0x1b	27
191	0x0d	13
192	0x3d	61
193	0x0b	11
194	0xe9	-23
195	0x22	34
196	0x21	33
197	0xf0	-16
198	0xe3	-29
199	0xf5	-11
200	0x51	81
201	0xf2	-14
202	0x20	32
203	0x10	16
204	0x16	22
205	0x11	17
206	0x0f	15
207	0xc6	-58
208	0x09	9
209	0xf0	-16
210	0x0a	10
211	0xef	-17
212	0xf6	-10
213	0xfc	-4
214	0x10	16
215	0xf6	-10
216	0x04	4
217	0x2d	45
218	0x19	25
219	0x14	20
220	0x12	18
221	0xe6	-26
222	0xe0	-32
223	0x15	21
224	0x04	4
225	0xdf	-33
226	0x0c	12
227	0x1c	28
228	0x00	0
229	0x06	6
230	0x45	69
231	0x0c	12
232	0x00	0
233	0x13	19
234	0xe5	-27
235	0xe7	-25
236	0x05	5
237	0xf7	-9
238	0xeb	-21
239	0x0e	14
240	0xd6	-42
241	0xe8	-24
242	0xdc	-36
243	0x1e	30
244	0x25	37
245	0x1e	30
246	0xfc	-4
247	0xf8	-8
248	0xed	-19
249	0xda	-38
250	0xf3	-13
251	0x25	37
252	0xd9	-39
253	0xf6	-10
254	0x01	1
255	0xe6	-26

Model61.1/decoder_1_0_project/Conv2D/ReadVariableOp i1 [128, 1, 1, 128]
0	0x26	38
1	0x08	8
2	0xdf	-33
3	0xaf	-81
4	0x2e	46
5	0xb3	-77
6	0xc5	-59
7	0x48	72
8	0xea	-22
9	0x42	66
10	0xdd	-35
11	0x28	40
12	0x3c	60
13	0xf1	-15
14	0x38	56
15	0x22	34
16	0x1c	28
17	0xf7	-9
18	0xcb	-53
19	0xee	-18
20	0xce	-50
21	0xab	-85
22	0x02	2
23	0xdb	-37
24	0x19	25
25	0x08	8
26	0xf2	-14
27	0xf9	-7
28	0x1f	31
29	0x22	34
30	0xdd	-35
31	0x28	40
32	0x81	-127
33	0xaf	-81
34	0xee	-18
35	0x02	2
36	0xec	-20
37	0xad	-83
38	0xc1	-63
39	0xda	-38
40	0xfb	-5
41	0xff	-1
42	0xc9	-55
43	0xf3	-13
44	0xd2	-46
45	0xfe	-2
46	0xa6	-90
47	0xee	-18
48	0x23	35
49	0xb0	-80
50	0x0f	15
51	0xcb	-53
52	0xb5	-75
53	0x2d	45
54	0xdd	-35
55	0xce	-50
56	0x19	25
57	0x8b	-117
58	0xf4	-12
59	0xff	-1
60	0xd9	-39
61	0xcc	-52
62	0x02	2
63	0x18	24
64	0x1d	29
65	0xfe	-2
66	0x56	86
67	0x33	51
68	0xf2	-14
69	0xec	-20
70	0xd1	-47
71	0x28	40
72	0xc2	-62
73	0x07	7
74	0xcb	-53
75	0xfe	-2
76	0xf1	-15
77	0xf6	-10
78	0x4d	77
79	0xfc	-4
80	0xc9	-55
81	0xea	-22
82	0xa6	-90
83	0xda	-38
84	0x3e	62
85	0xd9	-39
86	0xfb	-5
87	0xf4	-12
88	0xf1	-15
89	0x16	22
90	0xfe	-2
91	0x0c	12
92	0x38	56
93	0x00	0
94	0x36	54
95	0x2e	46
96	0xff	-1
97	0x1a	26
98	0x33	51
99	0xf8	-8
100	0x2a	42
101	0xed	-19
102	0xe0	-32
103	0x4a	74
104	0xfd	-3
105	0xe4	-28
106	0xe2	-30
107	0xd4	-44
108	0xc3	-61
109	0x46	70
110	0xba	-70
111	0x40	64
112	0x01	1
113	0xb2	-78
114	0xec	-20
115	0x23	35
116	0x19	25
117	0xee	-18
118	0xbe	-66
119	0x06	6
120	0x33	51
121	0x40	64
122	0xe1	-31
123	0xfc	-4
124	0x23	35
125	0xa9	-87
126	0x3a	58
127	0x0b	11
128	0xe4	-28
129	0xd6	-42
130	0x54	84
131	0xba	-70
132	0xf2	-14
133	0x20	32
134	0x59	89
135	0x03	3
136	0xd3	-45
137	0xfd	-3
138	0xc2	-62
139	0x5f	95
140	0x11	17
141	0xd1	-47
142	0xfa	-6
143	0x1f	31
144	0xf4	-12
145	0x4c	76
146	0xde	-34
147	0x17	23
148	0xdb	-37
149	0x90	-112
150	0xe9	-23
151	0x0a	10
152	0xe8	-24
153	0x1e	30
154	0xe0	-32
155	0x1d	29
156	0xe5	-27
157	0x23	35
158	0x05	5
159	0xf0	-16
160	0x0a	10
161	0x25	37
162	0x2a	42
163	0xb2	-78
164	0xf5	-11
165	0xdb	-37
166	0xe1	-31
167	0xeb	-21
168	0xc6	-58
169	0x09	9
170	0x05	5
171	0xdb	-37
172	0x1c	28
173	0xe9	-23
174	0xcc	-52
175	0xe7	-25
176	0xa9	-87
177	0x22	34
178	0xfa	-6
179	0xeb	-21
180	0xd4	-44
181	0x2e	46
182	0x31	49
183	0xe4	-28
184	0x2b	43
185	0xd3	-45
186	0x0e	14
187	0x16	22
188	0xf1	-15
189	0xf1	-15
190	0xc9	-55
191	0x4b	75
192	0xf5	-11
193	0xeb	-21
194	0xed	-19
195	0xea	-22
196	0x03	3
197	0xc4	-60
198	0x14	20
199	0x1b	27
200	0xf9	-7
201	0x4d	77
202	0xe5	-27
203	0x1d	29
204	0xff	-1
205	0xe3	-29
206	0x44	68
207	0x1f	31
208	0xdd	-35
209	0xc4	-60
210	0x25	37
211	0x93	-109
212	0xfa	-6
213	0xe7	-25
214	0xe6	-26
215	0x27	39
216	0x01	1
217	0xf9	-7
218	0xae	-82
219	0xe8	-24
220	0x10	16
221	0xd3	-45
222	0x4c	76
223	0x1f	31
224	0x7f	127
225	0x1b	27
226	0xf4	-12
227	0xdc	-36
228	0xaa	-86
229	0xdb	-37
230	0x11	17
231	0x2e	46
232	0xf9	-7
233	0xee	-18
234	0xf5	-11
235	0xbd	-67
236	0xc3	-61
237	0x63	99
238	0xf7	-9
239	0x1a	26
240	0x2f	47
241	0xc9	-55
242	0x8e	-114
243	0x2d	45
244	0x0a	10
245	0x0a	10
246	0xf7	-9
247	0x27	39
248	0x10	16
249	0x3b	59
250	0x0d	13
251	0xdb	-37
252	0xb9	-71
253	0xe2	-30
254	0x21	33
255	0xeb	-21

Model61.1/decoder_1_1_conv/Conv2D/ReadVariableOp i1 [128, 1, 1, 128]
0	0x19	25
1	0xa1	-95
2	0xf2	-14
3	0xdc	-36
4	0x4b	75
5	0x40	64
6	0x16	22
7	0x04	4
8	0x14	20
9	0x29	41
10	0x0e	14
11	0xe3	-29
12	0x4e	78
13	0x04	4
14	0xd5	-43
15	0x14	20
16	0xdf	-33
17	0x08	8
18	0x0b	11
19	0x01	1
20	0x29	41
21	0xff	-1
22	0xb7	-73
23	0xc4	-60
24	0xb0	-80
25	0x0a	10
26	0x1e	30
27	0x02	2
28	0x15	21
29	0xf6	-10
30	0xf8	-8
31	0xe5	-27
32	0xf1	-15
33	0xee	-18
34	0x01	1
35	0xfb	-5
36	0xfa	-6
37	0x0c	12
38	0x0a	10
39	0x2d	45
40	0xf3	-13
41	0xe6	-26
42	0x0b	11
43	0x2e	46
44	0x15	21
45	0x2d	45
46	0x13	19
47	0x26	38
48	0x09	9
49	0xce	-50
50	0x3f	63
51	0xa5	-91
52	0x21	33
53	0x2b	43
54	0x10	16
55	0x59	89
56	0xc0	-64
57	0xbb	-69
58	0xf3	-13
59	0xdc	-36
60	0x2f	47
61	0x21	33
62	0x1b	27
63	0xec	-20
64	0xda	-38
65	0x38	56
66	0xbd	-67
67	0x16	22
68	0xe3	-29
69	0x38	56
70	0xdb	-37
71	0x18	24
72	0x19	25
73	0x44	68
74	0x6a	106
75	0x31	49
76	0xee	-18
77	0x02	2
78	0xb7	-73
79	0x11	17
80	0xcd	-51
81	0x02	2
82	0x19	25
83	0x45	69
84	0x6a	106
85	0xb6	-74
86	0x0c	12
87	0xe4	-28
88	0x05	5
89	0x5f	95
90	0x2e	46
91	0xbd	-67
92	0xe3	-29
93	0x75	117
94	0xf4	-12
95	0xfb	-5
96	0xd6	-42
97	0xda	-38
98	0x48	72
99	0x41	65
100	0xf1	-15
101	0x6d	109
102	0x0a	10
103	0x90	-112
104	0xe8	-24
105	0xf6	-10
106	0xa5	-91
107	0xeb	-21
108	0xe5	-27
109	0x6a	106
110	0x14	20
111	0x23	35
112	0x7f	127
113	0xff	-1
114	0xd5	-43
115	0x12	18
116	0x18	24
117	0xfb	-5
118	0xc7	-57
119	0x18	24
120	0xfc	-4
121	0xb9	-71
122	0xd4	-44
123	0xf6	-10
124	0x0c	12
125	0x32	50
126	0xf1	-15
127	0xdf	-33
128	0xa6	-90
129	0xf4	-12
130	0x3e	62
131	0x4b	75
132	0xe0	-32
133	0xc0	-64
134	0xcc	-52
135	0x30	48
136	0xe0	-32
137	0xd8	-40
138	0x43	67
139	0x0f	15
140	0xfa	-6
141	0xa8	-88
142	0x61	97
143	0x3c	60
144	0xfe	-2
145	0xed	-19
146	0xec	-20
147	0xf7	-9
148	0xac	-84
149	0xeb	-21
150	0x05	5
151	0x22	34
152	0xf7	-9
153	0x11	17
154	0xd5	-43
155	0xd8	-40
156	0xea	-22
157	0x0f	15
158	0x1a	26
159	0xfc	-4
160	0xd7	-41
161	0x28	40
162	0xf7	-9
163	0xa2	-94
164	0xf6	-10
165	0xff	-1
166	0x21	33
167	0xe4	-28
168	0x1d	29
169	0x16	22
170	0x2c	44
171	0xe5	-27
172	0x3e	62
173	0x0e	14
174	0xb8	-72
175	0xad	-83
176	0xeb	-21
177	0x22	34
178	0xcc	-52
179	0x34	52
180	0x19	25
181	0xed	-19
182	0x02	2
183	0x8b	-117
184	0x0e	14
185	0x17	23
186	0x07	7
187	0xc6	-58
188	0xcc	-52
189	0xce	-50
190	0xf6	-10
191	0xd8	-40
192	0xf8	-8
193	0x15	21
194	0x0c	12
195	0x03	3
196	0x19	25
197	0xb3	-77
198	0xf9	-7
199	0xff	-1
200	0x0f	15
201	0xdf	-33
202	0xe9	-23
203	0xe2	-30
204	0xee	-18
205	0xcf	-49
206	0x05	5
207	0x2b	43
208	0x17	23
209	0xff	-1
210	0x16	22
211	0x05	5
212	0xff	-1
213	0xef	-17
214	0x3a	58
215	0xfc	-4
216	0x25	37
217	0xff	-1
218	0xf0	-16
219	0x20	32
220	0xe8	-24
221	0xd7	-41
222	0x52	82
223	0xe4	-28
224	0x0e	14
225	0x05	5
226	0xf4	-12
227	0x9a	-102
228	0xed	-19
229	0xef	-17
230	0x20	32
231	0xd7	-41
232	0x2d	45
233	0x0e	14
234	0x61	97
235	0x16	22
236	0x0b	11
237	0x62	98
238	0x48	72
239	0x03	3
240	0x0b	11
241	0xcd	-51
242	0xc4	-60
243	0x14	20
244	0xba	-70
245	0xfd	-3
246	0x0f	15
247	0x7f	127
248	0xd6	-42
249	0xd2	-46
250	0xe9	-23
251	0xb3	-77
252	0x40	64
253	0xde	-34
254	0x1b	27
255	0xdd	-35

Model61.1/decoder_1_1_depth/depthwise/ReadVariableOp i1 [1, 3, 3, 128]
0	0xd6	-42
1	0x28	40
2	0xd2	-46
3	0x67	103
4	0x03	3
5	0xda	-38
6	0x81	-127
7	0x9a	-102
8	0x97	-105
9	0x7f	127
10	0x9d	-99
11	0xee	-18
12	0xf7	-9
13	0xb9	-71
14	0x7f	127
15	0x37	55
16	0x55	85
17	0x0f	15
18	0x3b	59
19	0xd9	-39
20	0xf3	-13
21	0x48	72
22	0x7f	127
23	0x1f	31
24	0x07	7
25	0x1c	28
26	0x7f	127
27	0xb8	-72
28	0x7f	127
29	0x6e	110
30	0x81	-127
31	0x81	-127
32	0xf2	-14
33	0xbf	-65
34	0x91	-111
35	0x23	35
36	0x08	8
37	0xf2	-14
38	0x58	88
39	0xed	-19
40	0x90	-112
41	0x1a	26
42	0xf2	-14
43	0xb0	-80
44	0x0c	12
45	0x2b	43
46	0x25	37
47	0xfd	-3
48	0x98	-104
49	0xf0	-16
50	0x22	34
51	0x33	51
52	0xef	-17
53	0xe9	-23
54	0xd3	-45
55	0xde	-34
56	0x61	97
57	0x2d	45
58	0x81	-127
59	0x56	86
60	0xee	-18
61	0x89	-119
62	0x18	24
63	0xf1	-15
64	0xde	-34
65	0xe2	-30
66	0x84	-124
67	0x72	114
68	0xe7	-25
69	0x72	114
70	0x69	105
71	0xff	-1
72	0xf0	-16
73	0xff	-1
74	0xf9	-7
75	0xf2	-14
76	0x7f	127
77	0x5f	95
78	0x7f	127
79	0x1c	28
80	0x0a	10
81	0xab	-85
82	0xf1	-15
83	0xfb	-5
84	0x24	36
85	0x09	9
86	0xfd	-3
87	0x7f	127
88	0xd2	-46
89	0x0e	14
90	0xae	-82
91	0xf2	-14
92	0x6d	109
93	0x81	-127
94	0xe2	-30
95	0x22	34
96	0xdc	-36
97	0x62	98
98	0x7f	127
99	0x7f	127
100	0x96	-106
101	0x1e	30
102	0x75	117
103	0x9c	-100
104	0xdb	-37
105	0xb9	-71
106	0xfc	-4
107	0xd1	-47
108	0xf2	-14
109	0x14	20
110	0xcd	-51
111	0x81	-127
112	0xf3	-13
113	0xd4	-44
114	0xed	-19
115	0x40	64
116	0x3c	60
117	0x7f	127
118	0xf1	-15
119	0x4a	74
120	0xee	-18
121	0x1e	30
122	0xa2	-94
123	0xa3	-93
124	0x91	-111
125	0xbb	-69
126	0x66	102
127	0xdb	-37
128	0x03	3
129	0x1b	27
130	0x93	-109
131	0x7f	127
132	0xe5	-27
133	0x81	-127
134	0x27	39
135	0xb7	-73
136	0xcb	-53
137	0xe6	-26
138	0xa9	-87
139	0xf4	-12
140	0xf6	-10
141	0x8a	-118
142	0x10	16
143	0x09	9
144	0x7f	127
145	0x7f	127
146	0x8a	-118
147	0xb7	-73
148	0x3e	62
149	0x24	36
150	0xfb	-5
151	0x7f	127
152	0xfd	-3
153	0x7f	127
154	0x2e	46
155	0x81	-127
156	0x01	1
157	0xf4	-12
158	0x96	-106
159	0xd2	-46
160	0x30	48
161	0xf6	-10
162	0xc3	-61
163	0x47	71
164	0xac	-84
165	0xe3	-29
166	0x7f	127
167	0xfc	-4
168	0x8a	-118
169	0x60	96
170	0xfc	-4
171	0xfc	-4
172	0xd0	-48
173	0x3c	60
174	0x2a	42
175	0x2b	43
176	0x81	-127
177	0xe7	-25
178	0xd9	-39
179	0x2c	44
180	0x1c	28
181	0xf9	-7
182	0x18	24
183	0xcf	-49
184	0x70	112
185	0x08	8
186	0xdd	-35
187	0x00	0
188	0x4e	78
189	0xa5	-91
190	0x21	33
191	0xda	-38
192	0x29	41
193	0xe1	-31
194	0xc8	-56
195	0xe0	-32
196	0x05	5
197	0x00	0
198	0xef	-17
199	0x26	38
200	0xd9	-39
201	0xd6	-42
202	0xff	-1
203	0xfa	-6
204	0x6b	107
205	0x66	102
206	0x25	37
207	0x14	20
208	0x1f	31
209	0xd5	-43
210	0xed	-19
211	0xcb	-53
212	0x08	8
213	0xf6	-10
214	0x65	101
215	0xfd	-3
216	0xc5	-59
217	0x03	3
218	0x48	72
219	0x7f	127
220	0x68	104
221	0xdd	-35
222	0x48	72
223	0x13	19
224	0xb0	-80
225	0x33	51
226	0x66	102
227	0xed	-19
228	0xbc	-68
229	0xe7	-25
230	0xae	-82
231	0xbf	-65
232	0x0a	10
233	0xd4	-44
234	0x20	32
235	0x26	38
236	0xea	-22
237	0x81	-127
238	0x86	-122
239	0x84	-124
240	0xf9	-7
241	0x83	-125
242	0xc8	-56
243	0x02	2
244	0x7f	127
245	0xeb	-21
246	0xef	-17
247	0xce	-50
248	0xf0	-16
249	0xd6	-42
250	0xb4	-76
251	0x15	21
252	0x93	-109
253	0xb4	-76
254	0x1a	26
255	0xda	-38

Model61.1/decoder_1_1_expand/Conv2D/ReadVariableOp i1 [128, 1, 1, 128]
0	0x24	36
1	0xeb	-21
2	0xe1	-31
3	0x52	82
4	0x00	0
5	0xd7	-41
6	0x19	25
7	0x38	56
8	0x3e	62
9	0x03	3
10	0x0d	13
11	0x0f	15
12	0x35	53
13	0x26	38
14	0x23	35
15	0x92	-110
16	0x28	40
17	0xf0	-16
18	0x2c	44
19	0x0d	13
20	0x3e	62
21	0xf5	-11
22	0xe6	-26
23	0x0a	10
24	0x3e	62
25	0xc7	-57
26	0x71	113
27	0x23	35
28	0x10	16
29	0xe4	-28
30	0xea	-22
31	0x26	38
32	0x13	19
33	0xf7	-9
34	0x37	55
35	0x81	-127
36	0xa8	-88
37	0x87	-121
38	0xf0	-16
39	0x24	36
40	0x13	19
41	0x6f	111
42	0x2c	44
43	0xb1	-79
44	0x15	21
45	0xf6	-10
46	0xd1	-47
47	0x3e	62
48	0x07	7
49	0x39	57
50	0x53	83
51	0xe1	-31
52	0xd2	-46
53	0xf3	-13
54	0xc2	-62
55	0x5a	90
56	0xf7	-9
57	0x28	40
58	0x47	71
59	0xbd	-67
60	0x1b	27
61	0x1c	28
62	0x19	25
63	0xf8	-8
64	0xef	-17
65	0x29	41
66	0xb8	-72
67	0x44	68
68	0x00	0
69	0xf1	-15
70	0x94	-108
71	0xb6	-74
72	0xa3	-93
73	0x15	21
74	0x27	39
75	0x3c	60
76	0xf8	-8
77	0xe9	-23
78	0xb0	-80
79	0x5c	92
80	0x23	35
81	0x14	20
82	0x0a	10
83	0x51	81
84	0x13	19
85	0xea	-22
86	0x6c	108
87	0xcd	-51
88	0x0a	10
89	0x58	88
90	0xd5	-43
91	0xf5	-11
92	0x1a	26
93	0x1d	29
94	0x27	39
95	0x5a	90
96	0x81	-127
97	0x52	82
98	0x12	18
99	0xe0	-32
100	0xf5	-11
101	0x0d	13
102	0xc0	-64
103	0x07	7
104	0x5a	90
105	0x3e	62
106	0xd5	-43
107	0x0c	12
108	0x43	67
109	0x0b	11
110	0xfc	-4
111	0xfe	-2
112	0xb8	-72
113	0xe9	-23
114	0x33	51
115	0x23	35
116	0xc3	-61
117	0x03	3
118	0x1a	26
119	0x31	49
120	0xdd	-35
121	0x25	37
122	0xdd	-35
123	0xb7	-73
124	0xdd	-35
125	0x0f	15
126	0x2b	43
127	0xfa	-6
128	0x27	39
129	0xfb	-5
130	0x00	0
131	0xd1	-47
132	0x94	-108
133	0xca	-54
134	0x29	41
135	0xf6	-10
136	0x53	83
137	0x1d	29
138	0x1f	31
139	0x06	6
140	0xe0	-32
141	0x02	2
142	0xfd	-3
143	0xf8	-8
144	0xeb	-21
145	0xc4	-60
146	0x19	25
147	0xd0	-48
148	0x2d	45
149	0xf4	-12
150	0x16	22
151	0xf5	-11
152	0xef	-17
153	0xe0	-32
154	0x3d	61
155	0x29	41
156	0x2d	45
157	0x0a	10
158	0xdb	-37
159	0x3f	63
160	0xc8	-56
161	0x32	50
162	0x1d	29
163	0x1c	28
164	0xed	-19
165	0xf0	-16
166	0xfc	-4
167	0xd4	-44
168	0xf3	-13
169	0x36	54
170	0xe1	-31
171	0x34	52
172	0x16	22
173	0x06	6
174	0xd9	-39
175	0x42	66
176	0x23	35
177	0x27	39
178	0xf4	-12
179	0xeb	-21
180	0xfb	-5
181	0x0b	11
182	0x81	-127
183	0xf2	-14
184	0xe3	-29
185	0xf1	-15
186	0x23	35
187	0xe6	-26
188	0xe0	-32
189	0xcb	-53
190	0xf3	-13
191	0x05	5
192	0xfc	-4
193	0x2c	44
194	0x26	38
195	0x49	73
196	0x0f	15
197	0x08	8
198	0xdd	-35
199	0xd0	-48
200	0x19	25
201	0xd5	-43
202	0x2c	44
203	0x0a	10
204	0xe6	-26
205	0x0d	13
206	0xe5	-27
207	0x5d	93
208	0x1e	30
209	0xf5	-11
210	0xc2	-62
211	0xf8	-8
212	0x06	6
213	0x1a	26
214	0x3b	59
215	0x0c	12
216	0x2c	44
217	0x0c	12
218	0xe9	-23
219	0x2a	42
220	0x08	8
221	0x0c	12
222	0xe9	-23
223	0x01	1
224	0xc3	-61
225	0xe2	-30
226	0x2c	44
227	0xf3	-13
228	0x3e	62
229	0xf5	-11
230	0xb8	-72
231	0x12	18
232	0x36	54
233	0xbd	-67
234	0x0d	13
235	0xf9	-7
236	0xef	-17
237	0xec	-20
238	0x0e	14
239	0x1b	27
240	0xf3	-13
241	0xc2	-62
242	0x34	52
243	0x29	41
244	0xfe	-2
245	0xd0	-48
246	0x14	20
247	0xef	-17
248	0xf4	-12
249	0x19	25
250	0xf2	-14
251	0x06	6
252	0xc4	-60
253	0xc7	-57
254	0xfd	-3
255	0x1c	28

Model61.1/decoder_1_1_project/Conv2D/ReadVariableOp i1 [128, 1, 1, 128]
0	0xcb	-53
1	0xe8	-24
2	0xfe	-2
3	0xef	-17
4	0xde	-34
5	0xc4	-60
6	0x05	5
7	0x81	-127
8	0x1e	30
9	0xde	-34
10	0x4b	75
11	0xdc	-36
12	0xfc	-4
13	0xd3	-45
14	0xd6	-42
15	0x96	-106
16	0xef	-17
17	0xff	-1
18	0xf7	-9
19	0xfb	-5
20	0x1c	28
21	0x34	52
22	0xe9	-23
23	0xf1	-15
24	0xf4	-12
25	0xed	-19
26	0xca	-54
27	0x1f	31
28	0x17	23
29	0xdf	-33
30	0x3d	61
31	0xea	-22
32	0xdf	-33
33	0xff	-1
34	0xec	-20
35	0xbd	-67
36	0xfa	-6
37	0x00	0
38	0xf2	-14
39	0x15	21
40	0xf8	-8
41	0x18	24
42	0xd3	-45
43	0x55	85
44	0xba	-70
45	0xc2	-62
46	0x0a	10
47	0xc9	-55
48	0xeb	-21
49	0xf0	-16
50	0xea	-22
51	0xfe	-2
52	0xe1	-31
53	0x0f	15
54	0xfb	-5
55	0x05	5
56	0x3d	61
57	0xa7	-89
58	0x13	19
59	0xd5	-43
60	0xf6	-10
61	0x3b	59
62	0x07	7
63	0xa5	-91
64	0x48	72
65	0xce	-50
66	0x15	21
67	0xe6	-26
68	0xde	-34
69	0xc3	-61
70	0xf9	-7
71	0xf3	-13
72	0x1f	31
73	0x03	3
74	0xd6	-42
75	0xf6	-10
76	0xe8	-24
77	0x23	35
78	0x02	2
79	0xdd	-35
80	0xd4	-44
81	0x16	22
82	0xfb	-5
83	0xdc	-36
84	0x0f	15
85	0xe2	-30
86	0x3a	58
87	0xe7	-25
88	0x14	20
89	0x20	32
90	0xa1	-95
91	0xac	-84
92	0xf2	-14
93	0x3d	61
94	0xd3	-45
95	0xc5	-59
96	0xfb	-5
97	0xd5	-43
98	0xf2	-14
99	0xdb	-37
100	0x05	5
101	0xee	-18
102	0x13	19
103	0xe5	-27
104	0x0f	15
105	0xe8	-24
106	0x05	5
107	0xef	-17
108	0x0c	12
109	0x27	39
110	0x1b	27
111	0xe7	-25
112	0x02	2
113	0x05	5
114	0xe6	-26
115	0xef	-17
116	0xe9	-23
117	0xbf	-65
118	0x03	3
119	0xc2	-62
120	0x30	48
121	0xfb	-5
122	0x0c	12
123	0x22	34
124	0xd3	-45
125	0x51	81
126	0xff	-1
127	0xf8	-8
128	0xe0	-32
129	0x13	19
130	0x08	8
131	0xaa	-86
132	0xfb	-5
133	0x14	20
134	0xf7	-9
135	0xdc	-36
136	0xc2	-62
137	0x4d	77
138	0xcc	-52
139	0x9f	-97
140	0xfc	-4
141	0x06	6
142	0x3e	62
143	0x2a	42
144	0x24	36
145	0xca	-54
146	0x50	80
147	0x25	37
148	0xbb	-69
149	0xb4	-76
150	0xa5	-91
151	0xf4	-12
152	0xd3	-45
153	0x38	56
154	0xc7	-57
155	0x03	3
156	0x34	52
157	0xf2	-14
158	0xeb	-21
159	0xfd	-3
160	0x68	104
161	0x96	-106
162	0x3c	60
163	0xce	-50
164	0xd4	-44
165	0x2f	47
166	0x4f	79
167	0x4a	74
168	0xe7	-25
169	0xd8	-40
170	0x0b	11
171	0xc7	-57
172	0xd5	-43
173	0x06	6
174	0xed	-19
175	0x14	20
176	0x3f	63
177	0xf4	-12
178	0xdf	-33
179	0x54	84
180	0x1b	27
181	0xdd	-35
182	0x36	54
183	0xec	-20
184	0x21	33
185	0x0e	14
186	0x3c	60
187	0xde	-34
188	0x81	-127
189	0xc9	-55
190	0x2d	45
191	0xeb	-21
192	0x0b	11
193	0xfe	-2
194	0xf8	-8
195	0xdf	-33
196	0xf5	-11
197	0xd4	-44
198	0x4c	76
199	0x2c	44
200	0x6a	106
201	0x14	20
202	0x07	7
203	0x05	5
204	0xda	-38
205	0xfc	-4
206	0x9c	-100
207	0xe3	-29
208	0x0b	11
209	0xbc	-68
210	0x5a	90
211	0xd2	-46
212	0x1a	26
213	0xa7	-89
214	0xda	-38
215	0x3d	61
216	0x05	5
217	0x3c	60
218	0xc2	-62
219	0x56	86
220	0xf2	-14
221	0xdf	-33
222	0xbc	-68
223	0x39	57
224	0x42	66
225	0x26	38
226	0xf8	-8
227	0x23	35
228	0x38	56
229	0xec	-20
230	0x18	24
231	0xfb	-5
232	0xc8	-56
233	0xcb	-53
234	0xa9	-87
235	0xb5	-75
236	0xf8	-8
237	0x3f	63
238	0x45	69
239	0xf5	-11
240	0x01	1
241	0x5a	90
242	0x0b	11
243	0xbb	-69
244	0x96	-106
245	0x32	50
246	0xe8	-24
247	0xaa	-86
248	0x18	24
249	0xc2	-62
250	0x23	35
251	0xfd	-3
252	0xe3	-29
253	0xa8	-88
254	0x48	72
255	0xf7	-9

Model61.1/decoder_2_0_depth/depthwise/ReadVariableOp i1 [1, 3, 3, 128]
0	0xfa	-6
1	0xab	-85
2	0xac	-84
3	0x4a	74
4	0xd0	-48
5	0x04	4
6	0xf9	-7
7	0x2c	44
8	0x35	53
9	0xcb	-53
10	0x7f	127
11	0x7f	127
12	0x25	37
13	0x92	-110
14	0x7f	127
15	0x81	-127
16	0x68	104
17	0x7f	127
18	0xf1	-15
19	0x38	56
20	0xd8	-40
21	0x6b	107
22	0x1d	29
23	0xa6	-90
24	0x81	-127
25	0x1b	27
26	0x1c	28
27	0xbf	-65
28	0xb3	-77
29	0xf1	-15
30	0x3c	60
31	0x4c	76
32	0xb7	-73
33	0xad	-83
34	0x81	-127
35	0x93	-109
36	0xf7	-9
37	0x64	100
38	0xf3	-13
39	0xa1	-95
40	0x7f	127
41	0x98	-104
42	0x81	-127
43	0xe5	-27
44	0x7f	127
45	0x58	88
46	0x7f	127
47	0x57	87
48	0x9d	-99
49	0x9e	-98
50	0xe9	-23
51	0x7f	127
52	0xa0	-96
53	0x2e	46
54	0xd9	-39
55	0xda	-38
56	0xc9	-55
57	0x8a	-118
58	0xc4	-60
59	0xf8	-8
60	0x2a	42
61	0x74	116
62	0xf0	-16
63	0x4f	79
64	0x13	19
65	0x81	-127
66	0xc2	-62
67	0xfa	-6
68	0xa8	-88
69	0xc5	-59
70	0x71	113
71	0xb2	-78
72	0xd4	-44
73	0xdf	-33
74	0xb2	-78
75	0x16	22
76	0x42	66
77	0x7f	127
78	0xac	-84
79	0x9d	-99
80	0xe4	-28
81	0xe8	-24
82	0x81	-127
83	0x3b	59
84	0x12	18
85	0x12	18
86	0x81	-127
87	0x7f	127
88	0x81	-127
89	0x47	71
90	0x81	-127
91	0x46	70
92	0x81	-127
93	0xdf	-33
94	0x10	16
95	0x78	120
96	0x81	-127
97	0xe6	-26
98	0xaf	-81
99	0x40	64
100	0x7f	127
101	0xe2	-30
102	0xb9	-71
103	0xeb	-21
104	0xa7	-89
105	0xd6	-42
106	0x27	39
107	0x8b	-117
108	0x81	-127
109	0x81	-127
110	0x30	48
111	0x32	50
112	0x49	73
113	0xcc	-52
114	0x71	113
115	0xc4	-60
116	0xdf	-33
117	0x91	-111
118	0x70	112
119	0x81	-127
120	0x01	1
121	0x81	-127
122	0x81	-127
123	0x7f	127
124	0xa7	-89
125	0x7f	127
126	0x3d	61
127	0x86	-122
128	0xe3	-29
129	0x8e	-114
130	0x18	24
131	0x1d	29
132	0xce	-50
133	0xbb	-69
134	0xf3	-13
135	0xd7	-41
136	0xff	-1
137	0x07	7
138	0x1b	27
139	0xe4	-28
140	0xe2	-30
141	0x81	-127
142	0x15	21
143	0xe0	-32
144	0x7f	127
145	0x28	40
146	0x26	38
147	0x52	82
148	0xf2	-14
149	0x2c	44
150	0x1c	28
151	0x83	-125
152	0x98	-104
153	0x6c	108
154	0x2c	44
155	0xd1	-47
156	0xb6	-74
157	0xed	-19
158	0xe4	-28
159	0x4d	77
160	0x81	-127
161	0x16	22
162	0xd1	-47
163	0xb3	-77
164	0xf1	-15
165	0x39	57
166	0xe7	-25
167	0xd3	-45
168	0x53	83
169	0x81	-127
170	0xac	-84
171	0xd5	-43
172	0xf2	-14
173	0x48	72
174	0xe9	-23
175	0x35	53
176	0xf0	-16
177	0x0f	15
178	0xe6	-26
179	0x48	72
180	0x07	7
181	0x4a	74
182	0xf3	-13
183	0xd9	-39
184	0xea	-22
185	0xfb	-5
186	0xfe	-2
187	0x7f	127
188	0x7f	127
189	0x24	36
190	0x1b	27
191	0x06	6
192	0xce	-50
193	0xf6	-10
194	0xc6	-58
195	0x30	48
196	0x9c	-100
197	0xbe	-66
198	0x28	40
199	0x28	40
200	0x81	-127
201	0x56	86
202	0xde	-34
203	0xe6	-26
204	0x1a	26
205	0xef	-17
206	0xce	-50
207	0x81	-127
208	0xc6	-58
209	0xc2	-62
210	0xd9	-39
211	0xb2	-78
212	0x18	24
213	0x29	41
214	0xa6	-90
215	0x11	17
216	0x2f	47
217	0x22	34
218	0xd7	-41
219	0x1d	29
220	0xb3	-77
221	0xe8	-24
222	0x0b	11
223	0x38	56
224	0xda	-38
225	0x0b	11
226	0xdb	-37
227	0x17	23
228	0xf8	-8
229	0x0d	13
230	0x81	-127
231	0x2b	43
232	0xb6	-74
233	0xf6	-10
234	0xd2	-46
235	0xf6	-10
236	0xd1	-47
237	0xe9	-23
238	0xe0	-32
239	0x22	34
240	0xf5	-11
241	0xc3	-61
242	0x41	65
243	0x81	-127
244	0x21	33
245	0xcc	-52
246	0x1b	27
247	0xc2	-62
248	0x41	65
249	0xa8	-88
250	0xda	-38
251	0xea	-22
252	0xd2	-46
253	0x1c	28
254	0x15	21
255	0xc3	-61

Model61.1/decoder_2_0_expand/Conv2D/ReadVariableOp i1 [128, 1, 1, 256]
0	0xaa	-86
1	0x22	34
2	0xc0	-64
3	0x81	-127
4	0x03	3
5	0x0e	14
6	0x52	82
7	0xf4	-12
8	0xfe	-2
9	0xf3	-13
10	0x98	-104
11	0x38	56
12	0x48	72
13	0xea	-22
14	0x0c	12
15	0xe3	-29
16	0xe8	-24
17	0x15	21
18	0x18	24
19	0xde	-34
20	0x08	8
21	0xa4	-92
22	0xe4	-28
23	0xc9	-55
24	0xb4	-76
25	0xd4	-44
26	0x0a	10
27	0xf5	-11
28	0xff	-1
29	0xee	-18
30	0xd7	-41
31	0xa4	-92
32	0x02	2
33	0x3a	58
34	0xf0	-16
35	0xfb	-5
36	0xe9	-23
37	0xf8	-8
38	0x3f	63
39	0xe8	-24
40	0xff	-1
41	0x0b	11
42	0xbe	-66
43	0x22	34
44	0xfb	-5
45	0x1b	27
46	0xde	-34
47	0x1d	29
48	0x07	7
49	0xbe	-66
50	0xdc	-36
51	0x1a	26
52	0xf6	-10
53	0xeb	-21
54	0x07	7
55	0x24	36
56	0x21	33
57	0xee	-18
58	0xf5	-11
59	0x05	5
60	0x20	32
61	0x15	21
62	0xe5	-27
63	0x10	16
64	0x03	3
65	0x0d	13
66	0x07	7
67	0xeb	-21
68	0xaf	-81
69	0xec	-20
70	0x21	33
71	0xca	-54
72	0xf5	-11
73	0x36	54
74	0xfd	-3
75	0x37	55
76	0x02	2
77	0x07	7
78	0x1a	26
79	0xe8	-24
80	0x20	32
81	0xdd	-35
82	0xe6	-26
83	0x27	39
84	0xc4	-60
85	0x09	9
86	0xfe	-2
87	0x00	0
88	0x1b	27
89	0x14	20
90	0xe9	-23
91	0x12	18
92	0x3c	60
93	0x17	23
94	0xdc	-36
95	0xec	-20
96	0x1c	28
97	0xfc	-4
98	0x18	24
99	0xe6	-26
100	0xbd	-67
101	0x31	49
102	0x14	20
103	0x1e	30
104	0x17	23
105	0xf9	-7
106	0x17	23
107	0x17	23
108	0xdf	-33
109	0xb2	-78
110	0x06	6
111	0x08	8
112	0xa5	-91
113	0xca	-54
114	0xff	-1
115	0xe0	-32
116	0xe3	-29
117	0x21	33
118	0xed	-19
119	0xe6	-26
120	0xdf	-33
121	0x32	50
122	0x2d	45
123	0x03	3
124	0x08	8
125	0x4b	75
126	0x3f	63
127	0xd4	-44
128	0xf9	-7
129	0x04	4
130	0x17	23
131	0xed	-19
132	0xde	-34
133	0x01	1
134	0xc0	-64
135	0xe7	-25
136	0xd6	-42
137	0xef	-17
138	0x9f	-97
139	0xd6	-42
140	0xe0	-32
141	0xe4	-28
142	0xfd	-3
143	0x0f	15
144	0xf8	-8
145	0x13	19
146	0x5b	91
147	0x53	83
148	0xe9	-23
149	0xb3	-77
150	0xf2	-14
151	0x0a	10
152	0xfa	-6
153	0x1e	30
154	0xe1	-31
155	0xfc	-4
156	0xc6	-58
157	0xd7	-41
158	0x0e	14
159	0x00	0
160	0x5c	92
161	0x10	16
162	0x05	5
163	0xbd	-67
164	0x29	41
165	0xf8	-8
166	0x04	4
167	0x4e	78
168	0xe4	-28
169	0xef	-17
170	0xce	-50
171	0x14	20
172	0x38	56
173	0x5e	94
174	0xf2	-14
175	0x7b	123
176	0xf2	-14
177	0x07	7
178	0x0a	10
179	0x45	69
180	0xc5	-59
181	0xc0	-64
182	0x04	4
183	0xbf	-65
184	0xdf	-33
185	0x25	37
186	0xca	-54
187	0x9d	-99
188	0xda	-38
189	0x2d	45
190	0xd9	-39
191	0xe4	-28
192	0xea	-22
193	0x0f	15
194	0xcb	-53
195	0xc8	-56
196	0x0e	14
197	0x2a	42
198	0x03	3
199	0xd6	-42
200	0x17	23
201	0x0e	14
202	0xd8	-40
203	0x31	49
204	0xf1	-15
205	0x35	53
206	0xfc	-4
207	0x44	68
208	0xc4	-60
209	0x1a	26
210	0x13	19
211	0xee	-18
212	0xfc	-4
213	0xf4	-12
214	0x66	102
215	0x2b	43
216	0xb5	-75
217	0xf2	-14
218	0xd7	-41
219	0x1a	26
220	0x38	56
221	0xf4	-12
222	0x4b	75
223	0xcf	-49
224	0x27	39
225	0xe1	-31
226	0x12	18
227	0x9e	-98
228	0x00	0
229	0xd7	-41
230	0x19	25
231	0xe0	-32
232	0x19	25
233	0x36	54
234	0x2c	44
235	0xda	-38
236	0x3d	61
237	0xd3	-45
238	0xe8	-24
239	0xf6	-10
240	0x0a	10
241	0x0b	11
242	0x03	3
243	0x2c	44
244	0xe5	-27
245	0xe5	-27
246	0xf9	-7
247	0xb9	-71
248	0xda	-38
249	0x2c	44
250	0x1f	31
251	0x2e	46
252	0x11	17
253	0xc4	-60
254	0x1a	26
255	0xda	-38
