Model61.1.tflite (tflite, 857072 bytes, 153 tensors)

Model61.1/decoder_0_0_depth_BN/FusedBatchNormV3 f4 [256]
000000 24 b1 d2 bd 2a f6 50 3f e4 7c a3 3f 88 9c ec 3e
       -0.10287693 0.81625617 1.2772489 0.46213174
000010 15 32 cd 3d 9c a4 81 3f 54 c9 07 be 0b d2 30 bf
       0.10019318 1.012836 -0.13260394 -0.690705
000020 97 15 06 bf 1d f6 35 be 32 f8 10 3f f3 36 9f 3e
       -0.52376693 -0.17769666 0.56628716 0.3109661
000030 0f 73 80 be 7f da c5 3e 2d 06 78 3f ac 13 ac be
       -0.25087783 0.38643262 0.96884423 -0.33608758
000040 fa 30 87 be b3 a0 85 be 12 e2 c3 be 4a 7c 33 be
       -0.26404554 -0.26099166 -0.38258415 -0.17527881
000050 30 47 b4 be 20 ac 0a 3d 66 83 34 bf e7 fa 45 bf
       -0.35210562 0.033855557 -0.70513 -0.7733597
000060 f2 2d 79 3f f2 f9 9b be b3 b6 4f 3f d1 05 0c bf
       0.9733573 -0.3046413 0.8113815 -0.54696375
000070 6e 7b 63 3f 4c 19 8c 3f fb 1d 4f bf 90 12 7c 3c
       0.88860214 1.094522 -0.8090512 0.015385285
000080 ca f3 a5 3f 0e 21 13 bf d2 c7 3e 3f 60 60 98 be
       1.2965024 -0.5747231 0.7452365 -0.29761028
000090 b0 2a 35 3f 6f 2e 3c 3e 9b ac 50 3e f6 16 28 3f
       0.7076826 0.18377088 0.20378344 0.65660036
0000a0 33 b1 04 3f 10 51 ac 3d 20 88 65 3c 18 9c 55 bc
       0.51832885 0.08413899 0.0140095055 -0.013037704
0000b0 d2 64 6c 3f ca 42 08 bf 24 4b ce 3e c8 cf b0 3e
       0.9234134 -0.5322691 0.40291703 0.34533525
0000c0 9d bd 1d bf 06 8e 36 be 5b 04 af 3f 5c 07 fe be
       -0.6161745 -0.17827615 1.3673204 -0.4961499
0000d0 5d e0 9e bd b6 a6 77 3e 44 44 d8 3d 9a 01 7a 3f
       -0.07757638 0.24184689 0.10559896 0.97658694
0000e0 89 e8 56 3e d8 71 31 3f a6 56 99 be 44 c5 22 bf
       0.20987143 0.69314337 -0.2994892 -0.63582253
0000f0 16 21 9e be 56 f6 d7 be 49 f2 82 3f c7 a3 af be
       -0.30884618 -0.42180127 1.023019 -0.3430464
000100 72 ee 02 3f 2b 08 66 bf e5 1a 49 3f 9c b7 89 3e
       0.5114509 -0.89856213 0.7855666 0.26897895
000110 0c 6e ca be 80 2e f6 be bb aa 43 3f 19 59 ec 3e
       -0.39537084 -0.48082352 0.7643239 0.46161726
000120 0e 5d 73 3e 90 22 a4 be a6 18 7f bd cf f2 f5 3e
       0.23765966 -0.3205762 -0.062279366 0.4803681
000130 0e 4d 2e 3f e0 00 c4 be 16 5e 95 be ec 3d dc 3f
       0.68086326 -0.38281918 -0.29173344 1.7206397
000140 d2 17 33 be 0f e4 68 3e 9c 7d d7 be 79 a9 81 3f
       -0.17489555 0.22743247 -0.4208802 1.0129844
000150 c3 2d 11 bf dd 7d 30 3f c5 6b 1c 3c 06 ec 44 bf
       -0.5671045 0.6894205 0.009547179 -0.76922643
000160 26 ee 44 be 86 57 b7 be 54 e3 23 bf 09 85 c9 3e
       -0.19231471 -0.35808963 -0.6401875 0.3935931
000170 21 a5 0a bf e0 49 32 3d 1e 6e 8f 3d f4 cf 8e 3e
       -0.54158217 0.043527484 0.07003425 0.2789303
000180 cd 89 0f 3f a6 b2 77 3e 60 a9 4e 3f 87 7c 5b bf
       0.5606964 0.24189243 0.80727196 -0.8573689
000190 1d 01 30 3f ee 72 57 3f 02 90 9f 3e 37 16 58 bf
       0.687517 0.84159744 0.31164557 -0.844089
0001a0 41 17 ad 3e b9 f4 1a 3f 00 d8 7c 3b ca 5d 8b 3f
       0.33806804 0.6052967 0.0038580894 1.0887997
0001b0 b2 bc 1c be 66 5f 3b 3f 5f db 1c 3f c8 26 ac 3f
       -0.15306357 0.7319244 0.61272234 1.3449335
0001c0 c2 4e 27 3f 41 a9 11 bf 52 f7 8d be d8 35 9e 3f
       0.6535455 -0.56898886 -0.27727753 1.2360182
0001d0 69 64 28 3f a1 ca 81 be da 90 ea 3e 68 4f 0d bf
       0.65778214 -0.25349906 0.45813638 -0.5519929
0001e0 5b 3c 23 bf a6 d9 09 be 00 43 0e bf 30 c3 24 3d
       -0.6376397 -0.13461933 -0.55570984 0.040225208
0001f0 98 3f 11 bf 55 c1 42 3e 87 fd 17 be 37 d5 5a be
       -0.5673766 0.19019063 -0.14842807 -0.21370398
000200 1a d5 14 3f aa 5b b1 be 8d 54 a0 3d d2 b2 94 be
       0.5813767 -0.34640247 0.07828627 -0.2904268
000210 5b e3 11 3e 90 de a6 3f 9a 35 03 be 07 d4 8d 3e
       0.14246885 1.3036671 -0.12813416 0.27700827
000220 08 c2 b2 be aa b5 9e bf 58 19 d6 3c be 53 31 3f
       -0.3491366 -1.239919 0.026135132 0.69268405
000230 f6 bb fc 3e ea c4 66 3f c9 18 ae be 44 10 ca be
       0.49362153 0.90144217 -0.34003285 -0.39465535
000240 ab 71 d1 3e 4b 88 ad 3f de f8 a2 be 57 17 75 be
       0.40907034 1.3557218 -0.31830496 -0.23934685
000250 83 dc 24 bf 93 e2 45 bf c9 f0 23 3f 9a bd c0 be
       -0.64398974 -0.7729885 0.64039284 -0.37644655
000260 10 e6 90 3e 40 21 95 3b 28 9a de bc 3a 2a 12 3e
       0.28300524 0.004551083 -0.027173117 0.1427392
000270 0a 8b 8c 3f 40 ba 42 be e0 ad 90 3f 5d eb 52 3e
       1.0979931 -0.19016361 1.1303062 0.20597596
000280 08 36 cd 3d 3e 4d 53 bf b1 7f 04 3f 04 12 a9 be
       0.10020071 -0.8253974 0.5175734 -0.33021557
000290 3e b7 0e 3f e6 6a bb 3e c2 19 f5 bd 8a 1e 3c bf
       0.55748355 0.36604995 -0.119678035 -0.734841
0002a0 d3 07 28 bf d8 e8 61 be b3 8d b1 3e 09 34 af 3f
       -0.6563694 -0.22061479 0.3467842 1.3687755
0002b0 35 be 1c 3f ac dc 93 be cf 52 3d be 99 8f 82 3e
       0.6122773 -0.28879297 -0.1848862 0.2550018
0002c0 1c f8 1d bf b5 34 d7 be fd 20 4c 3f c0 e5 22 bf
       -0.6170671 -0.420324 0.79737836 -0.6363182
0002d0 e3 3a 66 3e a0 77 89 be 6e 50 6e 3f 70 f9 0b 3f
       0.22483401 -0.2684908 0.93091476 0.54677486
0002e0 fc 08 46 3e d3 1b d6 be 3c 1f ce 3d 36 fa 42 3f
       0.19339365 -0.41818103 0.10064551 0.7616304
0002f0 98 3f a8 bd 82 83 39 bf 23 b5 93 3f 73 66 1b be
       -0.082152545 -0.7246629 1.1539654 -0.151758
000300 02 8d aa 3e 1e 9d 6c 3f e8 77 ef 3e 08 d3 ce bd
       0.33310705 0.9242724 0.4677117 -0.10098845
000310 38 95 24 3f 10 93 bc 3e be f1 ad 3e 8a eb 11 3f
       0.6429019 0.3683095 0.33973497 0.5700003
000320 80 f6 99 3b 76 e9 c5 3f fe 6b e0 be 00 e5 20 be
       0.0046985745 1.5461872 -0.43832392 -0.15712357
000330 71 12 aa 3e b1 7a 44 3f 8a 7d f0 3d 78 e8 42 3d
       0.33217195 0.7674971 0.11742695 0.04758498
000340 e0 3e bc be f0 f8 7f 3f 3a 6a 19 3f 67 df 8a 3f
       -0.3676672 0.99989223 0.59927714 1.0849427
000350 02 68 93 3f dd 35 07 3f a2 01 94 3d 17 9e 17 bf
       1.1516116 0.52816564 0.07226874 -0.592256
000360 ba 73 fe bd fa 67 45 3f 1a 8b 09 bf 6f ce 40 3f
       -0.12424417 0.7711178 -0.5372788 0.7531499
000370 a6 52 22 3f 3c 56 cc be cd 28 05 3f 52 a0 2a bf
       0.6340736 -0.39909542 0.5201538 -0.6665088
000380 5c a1 2f 3f 42 7b 1b 3f fb 61 80 3f 05 46 15 3f
       0.6860559 0.6073495 1.0029901 0.58309966
000390 3c 67 09 bf e1 90 61 be c0 27 76 3f 7f 4f 7f be
       -0.5367315 -0.22027923 0.96154404 -0.24932669
0003a0 30 a4 6c 3e 92 dd 5f 3f 80 85 4e 3e 1c 5d 80 bf
       0.23109508 0.87447464 0.20168114 -1.0028415
0003b0 be c0 44 3f 8b a5 2b 3f 17 36 81 3f cd cb 94 3d
       0.768566 0.67049474 1.0094632 0.072654344
0003c0 ad 56 91 be 54 dc a3 3d 3f 1e eb 3f fe 34 57 be
       -0.2838644 0.08001009 1.8368605 -0.21016309
0003d0 85 2a e3 bd d1 94 5f 3f 89 f7 7e 3f e0 ca 42 bd
       -0.11092094 0.8733645 0.9959646 -0.047556758
0003e0 1f 2d 7c be fb fb 43 bf 1e 77 93 be d6 89 d2 3e
       -0.24626587 -0.76556367 -0.28801817 0.41120785
0003f0 8a 59 7a 3f b9 f2 aa be e5 f1 28 be 5c 6b 9f 3f
       0.97792876 -0.33388308 -0.16498525 1.2454638

Model61.1/decoder_0_0_expand_BN/FusedBatchNormV3 f4 [256]
000000 a1 7a 4b bc 24 59 61 3c fa 37 6c 3e fe db fd 3d
       -0.012419374 0.013754163 0.23068228 0.12395476
000010 c6 b3 dc 3d c0 a2 6d 3e c3 6b 71 3e f5 46 cc be
       0.107764766 0.23206615 0.23576264 -0.39897886
000020 5d f1 07 bd f8 26 a9 3d d2 e5 97 3d 90 60 13 3e
       -0.033189166 0.08259386 0.074168816 0.14392304
000030 9c c1 1e 3d 9f 93 82 3e 90 99 90 3e 17 75 25 be
       0.03875886 0.2550325 0.2824216 -0.16157947
000040 6c 17 a2 3d ef 8a 81 3d 45 9b 89 3d f9 ca 51 be
       0.079146236 0.063253276 0.067190684 -0.20487584
000050 3f ac d9 3d c0 08 40 3e 15 6a 8e 3d 4d 75 cf 3d
       0.106285565 0.18753338 0.06953827 0.10129795
000060 e7 d4 e8 3e 3a c6 a7 3d bf a5 4f 3e 80 f0 ae 3d
       0.45474932 0.081921056 0.20278071 0.085419655
000070 98 97 fa 3e 01 ea 8b 3d 67 38 7b 3e 02 60 4a 3c
       0.48943782 0.06831742 0.24533235 0.012351992
000080 0f 1d 5a 3e 0d 06 a6 3e a2 16 9b 3e d0 9f 53 bd
       0.21300147 0.3242649 0.30290705 -0.05166608
000090 88 78 8a 3e 93 e7 37 3e 2d 46 83 3e 40 ee b7 bc
       0.27045083 0.17959432 0.25639477 -0.022452474
0000a0 64 9b 6a 3c 24 2e 45 bd 4b 17 3c 3e 0b 16 3c 3e
       0.014319275 -0.048139706 0.1836826 0.18367784
0000b0 06 8d cf bd 4c 73 b8 3c 07 94 0c 3e a0 82 09 3e
       -0.1013432 0.022515915 0.13728343 0.13428736
0000c0 f5 7b df bd 76 3e cb be 3a 10 60 3e e1 92 b1 3d
       -0.10912315 -0.3969609 0.2188119 0.08670593
0000d0 84 bd 2a 3e 3f ee 2b be 0e f7 c9 3d 44 36 fc 3d
       0.16673857 -0.16790102 0.09861575 0.12315038
0000e0 71 b2 87 3e 76 56 21 be df f0 89 3d 82 cf 80 3e
       0.26503327 -0.15755638 0.06735396 0.25158316
0000f0 1e 9d 78 bd e5 0c 8f 3e 2f 4d 4a 3e f3 56 a7 3d
       -0.060696714 0.27939525 0.19756006 0.08170881
000100 a7 10 20 be 71 6e f0 3e 82 f7 b6 bd c5 dd cb 3e
       -0.15631352 0.4695926 -0.08933927 0.39817634
000110 73 4e c7 3d 9a e7 56 be 98 ad 9c 3e 27 65 13 be
       0.0973176 -0.20986786 0.30601192 -0.14394055
000120 00 5a 60 bd b3 91 24 3e 43 15 e9 3d e0 8d 13 bd
       -0.05477333 0.16071205 0.113810085 -0.036023974
000130 0a b3 91 3e ee 89 15 3e 35 d8 8b 3e 34 c7 a0 3e
       0.28456908 0.14603397 0.2731339 0.3140198
000140 88 e1 95 3e 56 47 50 be a7 1d e1 3d 11 37 a2 3e
       0.2927363 -0.20339713 0.10991984 0.31682637
000150 48 0e 0d bc af 5a 1b be 44 bd 06 3c 79 ce a7 3d
       -0.008609362 -0.15171312 0.008223835 0.081936784
000160 74 84 69 3e 26 b1 a4 bc e2 ee 98 bc df 43 86 3d
       0.22804433 -0.020104002 -0.018668596 0.06555914
000170 66 72 20 3e 83 b0 81 3e b7 a2 14 3e f6 ec 10 3d
       0.1566864 0.2532998 0.14515196 0.035382234
000180 41 24 cb bd 20 02 b7 bd e2 3d 88 3d 8b 09 a7 bd
       -0.09919024 -0.08935952 0.06652428 -0.08156117
000190 a6 7d 7b 3e 82 c8 99 bd 2e 31 6e 3d 97 64 0c 3f
       0.2455965 -0.07508947 0.05815237 0.5484099
0001a0 3e 41 bb bc 22 ae 8e be b4 aa 0a be b5 99 a5 3e
       -0.022858258 -0.27867228 -0.1354168 0.32343832
0001b0 8f 03 d8 3c 5e 6a 05 3e dc 02 44 3e c6 a2 40 3e
       0.026368884 0.13028857 0.19141716 0.18812093
0001c0 cb 5d 81 3e 84 6e 1d be 53 12 45 3e 8d d4 04 3e
       0.2526687 -0.1537419 0.19245271 0.12971707
0001d0 75 96 06 3f 44 38 e0 be 11 cc 36 3e 71 95 c4 bd
       0.5257333 -0.43792927 0.17851283 -0.09598816
0001e0 6e 0c 1f be ae a4 82 3e 6f 86 0b be 91 bc 5c 3e
       -0.15532085 0.25516266 -0.13625501 0.21556307
0001f0 1c 18 66 3c 1a 4e d9 3d 5a c2 0a 3e d8 70 94 3d
       0.014043834 0.106106 0.13550702 0.07248086
000200 95 35 af 3e fe e4 49 3e 67 fe b3 3d e8 54 8b bd
       0.34220567 0.1971626 0.08788758 -0.06803304
000210 b3 10 67 3e c7 a0 81 3e 9b ab c0 3e 72 b4 0f be
       0.22564964 0.25317976 0.37630925 -0.14033678
000220 7c 0d 1e be 7d e3 89 3e b4 93 e5 bc fa 8f 4a 3d
       -0.15434831 0.26931372 -0.028024532 0.049453713
000230 98 c2 51 3e e4 b9 68 3e 57 5a 58 3d 58 36 2f 3e
       0.20484388 0.22727162 0.05282053 0.17110574
000240 c6 52 24 bd e5 ca 8d 3e 6a 71 9d 3e 7c b0 c6 3d
       -0.040118 0.2769386 0.3075059 0.097016305
000250 a0 cc e2 bd 9f 86 cd bd 66 7c 11 bd 9f ab 7a 3e
       -0.11074185 -0.100354426 -0.035519026 0.24479531
000260 ad 6a 04 3e 10 93 bb 3e ae 84 5e bc c0 c9 ed 3d
       0.12931319 0.36635637 -0.013581438 0.116107464
000270 fb 44 eb bd 0b 73 34 3e 3b fd 50 3e 68 71 98 3e
       -0.11487766 0.1762201 0.204091 0.29774022
000280 f8 6a 3e 3c 42 43 71 3e e2 a5 cf 3e db 61 c3 3d
       0.011622183 0.23560813 0.40556246 0.09540149
000290 22 f7 c6 3d ba 65 ec bd fd 61 ca 3e 9e d8 96 be
       0.097151056 -0.1154284 0.39527884 -0.2946214
0002a0 50 17 03 be 00 eb 02 3e 8e 8c 13 3e 61 82 ba 3e
       -0.12801862 0.12784958 0.14409086 0.36427596
0002b0 48 e2 1c 3e 36 46 ae 3d f6 83 77 be 20 05 da 3e
       0.15320694 0.085094854 -0.24171433 0.42582035
0002c0 c6 6e 60 be c4 ab e6 3c c6 dc fe bd 02 69 17 be
       -0.21917257 0.028158076 -0.12444453 -0.14786151
0002d0 ac c1 5c 3e 95 af 69 be 3a bb 99 3e 39 c7 66 3e
       0.21558255 -0.22820885 0.30025655 0.22536935
0002e0 6a f4 92 bd e8 c2 76 3d c3 eb 42 be eb 78 86 3e
       -0.071755245 0.06024447 -0.19035248 0.26264128
0002f0 18 04 a4 3d 6c 16 2a 3d b5 3e 80 bd 36 74 da 3d
       0.08008593 0.04152529 -0.062619604 0.10666697
000300 44 f6 19 be e8 81 69 3d 42 70 04 3e 35 c0 bc 3e
       -0.15035349 0.057008654 0.12933448 0.36865392
000310 9a b6 a4 3e fe 77 09 3e de 9c 50 3d 6a a5 ba 3e
       0.32170564 0.1342468 0.05093085 0.36454326
000320 7f 89 18 be cb b7 a8 3e 7a d2 e7 3c 5a 58 b0 3e
       -0.148962 0.32952723 0.028298605 0.34442407
000330 dd 97 11 be 74 33 87 3e de 53 28 3e 5c 13 90 3e
       -0.14218087 0.26406443 0.16438243 0.2813977
000340 73 87 ac 3e 7d 28 db 3e 30 ea d2 bd 21 4f 93 3e
       0.3369709 0.42804328 -0.10298574 0.28771308
000350 51 5a 2e be 26 01 b4 3e f2 dd 23 bc b4 e7 76 be
       -0.1702664 0.35157126 -0.010001646 -0.24111825
000360 d7 8b 2c bd 2d 16 4e be e8 98 11 3e eb 8c 15 3e
       -0.04212555 -0.20125647 0.14218485 0.14604537
000370 35 38 ea 3e 7d a4 cb be 90 10 d9 3e f2 e1 f1 3d
       0.45746008 -0.39773932 0.4239545 0.11810674
000380 16 54 c4 3e ca 37 46 3e ae 53 94 3e d6 d5 53 be
       0.38345402 0.1935722 0.28970093 -0.2068704
000390 b0 c5 17 3e 4b ea 80 3c 15 96 25 3e b7 43 c0 be
       0.14821506 0.01573672 0.16170533 -0.37551662
0003a0 e0 6f c1 3e 8e 0b 90 3e 7b 5b 14 3e a1 5b 10 be
       0.37780666 0.28133816 0.14488022 -0.14097454
0003b0 10 0c f0 3d d4 02 b6 3d 8a 6a 09 3e 45 85 55 be
       0.11721051 0.08887258 0.13419548 -0.2085162
0003c0 38 d1 03 be 02 3a 27 3e 3f de 04 3f 58 a6 cf 3d
       -0.1287278 0.16330722 0.5190162 0.101391494
0003d0 e6 ae 2c 3e ea eb 09 3d 40 62 bd 3e 9d 0d d2 3e
       0.16863593 0.03367225 0.3698902 0.4102601
0003e0 72 cb 49 3e ad 26 15 3d fe d6 93 3d 26 34 b3 bd
       0.19706514 0.036413837 0.07218741 -0.08750181
0003f0 84 f5 4e bd 97 7c 8f 3d 9b 2b de 3d 34 68 90 3e
       -0.05052711 0.070061855 0.10848161 0.282045

Model61.1/decoder_0_1_depth_BN/FusedBatchNormV3 f4 [128]
000000 33 fa a2 be 1c 8b bb be ee 80 ff 3d 6c 9b 30 3f
       -0.31831512 -0.3662957 0.12475763 0.68987155
000010 10 ba bf bd f5 9c c7 be ee 46 c1 be d7 fe 76 3e
       -0.093616605 -0.38986936 -0.37749428 0.24120651
000020 b3 50 ec 3e 05 00 0d 3e 0c 7a 68 be fa 52 93 be
       0.4615532 0.13769539 -0.22702807 -0.28774244
000030 d0 8d 08 3f 54 cd fb bd 83 4b bc 3e 10 02 24 bf
       0.5334139 -0.122950226 0.3677636 -0.6406565
000040 36 16 ba be a9 ba 8d 3f 0d e1 2f 3f 86 f0 02 bf
       -0.3634507 1.1072589 0.68702775 -0.5114826
000050 9a 3c c3 3e cc 8a ff 3e 78 f3 7a be 12 c4 b0 3e
       0.38132173 0.4991058 -0.24506938 0.3452459
000060 5a d5 88 be 5a 38 83 3f 4f dc b7 be 6e 70 19 3f
       -0.26725274 1.0251572 -0.3591027 0.5993718
000070 de 1c b3 3e d0 f6 13 bc fe 1b 58 3f 17 63 09 bf
       0.3498296 -0.009031013 0.8441771 -0.53666824
000080 48 ba c7 be 29 81 0b 3e 87 47 27 3e ec c9 e4 3d
       -0.3900931 0.1362349 0.1633588 0.11171326
000090 d4 d5 80 be 73 95 fc be d5 a8 91 3f 04 d5 09 3f
       -0.25163138 -0.4933277 1.1379648 0.5384066
0000a0 72 fc 90 be f8 80 56 3e 66 0b d2 3e 33 87 a2 be
       -0.283176 0.20947635 0.4102432 -0.31743774
0000b0 78 f8 a3 3e 7c b4 ae be b4 d2 0e be e4 7b f5 be
       0.32025504 -0.34122074 -0.13947564 -0.47946084
0000c0 f4 0c 64 3d 08 49 57 be 22 d3 2a be 91 94 c6 be
       0.055676416 -0.21023953 -0.16682103 -0.38785222
0000d0 0b 2b 56 3e 30 5d 03 3f 4d cf 2f be b6 96 48 3f
       0.20914857 0.5131407 -0.17168923 0.78354967
0000e0 e4 bc dc bd e0 b7 91 bd 4a c9 a2 3f 54 b4 0d bf
       -0.107782155 -0.071151495 1.2717679 -0.55353284
0000f0 2f 77 ec be 78 5e 58 3f 9f 3a 1a be 86 b6 c4 3e
       -0.4618468 0.8451915 -0.15061425 0.38420504
000100 2e cd 95 3f 78 97 97 be b0 99 ad 3e 02 f6 f3 be
       1.1703241 -0.2960775 0.33906317 -0.47648627
000110 39 89 10 3f e0 ef 6e bd b2 e6 45 bf 2b 5f 0e 3f
       0.56459385 -0.05833423 -0.7730514 0.55613965
000120 2c e0 03 3f 60 5b 50 bd e0 86 ba be 69 a3 a5 3e
       0.51513934 -0.050868392 -0.36431026 0.32351235
000130 94 00 71 3e 38 d8 ab be cc bb 03 be a7 a9 0b 3f
       0.23535377 -0.335634 -0.12864608 0.54555744
000140 c4 70 4e 3e 84 67 bc be 72 89 26 bf 7b f4 62 3f
       0.20160204 -0.36797726 -0.65053475 0.886543
000150 72 b1 b6 3e 96 3b 18 bf c5 ce 40 3f 67 d9 3e 3f
       0.35682255 -0.5946592 0.75315505 0.7455048
000160 cc 46 a9 3e 54 d2 e2 bd e0 c1 23 bd bb 1b 3f 3f
       0.33061826 -0.11075273 -0.039979815 0.7465169
000170 86 55 8b be 6d 98 42 be 52 37 b0 3e fe 8f 5c 3f
       -0.27213687 -0.19003458 0.34417206 0.86157215
000180 b2 71 bb 3e 66 c0 01 bf 3b d3 a1 3e 7d fe 15 3e
       0.3661018 -0.506842 0.3160647 0.14647861
000190 1d 6a 56 be 48 f0 81 be 4c 90 24 3f 82 04 9c be
       -0.20938917 -0.25378633 0.6428268 -0.3047219
0001a0 02 60 a1 be 4c cf 52 3c 64 d5 80 be a4 4a a6 3f
       -0.3151856 0.012866806 -0.25162804 1.2991529
0001b0 f4 28 57 be 90 3d 71 be bc 7b 75 3f 48 30 fd 3e
       -0.21011716 -0.2355864 0.9589193 0.49450898
0001c0 66 35 94 be c1 91 00 be f4 57 88 3f eb 75 cc 3e
       -0.2894699 -0.125556 1.0651841 0.39933714
0001d0 f4 2f c4 bc 17 41 4f 3e 47 dc 80 be 60 4b e5 bd
       -0.023948647 0.20239674 -0.25168058 -0.11196017
0001e0 b8 ec fe be 57 d0 f3 3e 3d 60 df be 74 e5 0d 3f
       -0.49789977 0.47619888 -0.4362811 0.5542824
0001f0 54 ca ce bc 9c 6e 06 bd 89 72 8b 3e f5 0b 09 3f
       -0.025242962 -0.03282033 0.2723582 0.5353387

Model61.1/decoder_0_1_expand_BN/FusedBatchNormV3 f4 [128]
000000 27 65 3f be 5a db 3c 3d 69 5e 8f be e8 4e 3a 3d
       -0.1869093 0.046107627 -0.28001717 0.045485407
000010 4c 2d 3a be 49 82 e4 be 12 df be 3c b1 34 32 be
       -0.18181342 -0.4463065 0.023299728 -0.17402913
000020 cd 59 e7 3e dd 3a b0 bd d8 87 ae be f2 c9 ab bd
       0.451857 -0.08604977 -0.34088016 -0.083881274
000030 88 df d2 3e bf 47 5f bd c4 3a 82 bd f4 6a 90 bd
       0.41186166 -0.05451178 -0.06358865 -0.0705165
000040 27 22 19 be 40 a4 f5 3e f0 d7 52 3e fa fd a1 3d
       -0.14954434 0.47976875 0.20590186 0.0790977
000050 ce a7 03 bf 88 a9 9a 3d 2a 25 4b be 5c 3d aa 3d
       -0.51427925 0.07551867 -0.19838396 0.083124846
000060 9a a1 26 3d 6b ef 47 be 22 5a b4 bd 2c 7e 81 3c
       0.04068146 -0.19524924 -0.08806254 0.015807234
000070 91 aa 5d 3e 31 5a 0c 3e e0 b3 12 3f 12 8c c2 be
       0.21647097 0.1370628 0.5730572 -0.3799749
000080 e2 7e f4 bc f0 79 e8 3e b8 16 e2 bc f1 52 c6 bd
       -0.029845659 0.4540553 -0.027598724 -0.096837886
000090 ab ca e0 bd 91 7e 60 3e d3 c3 d4 3e 32 77 55 3d
       -0.10976156 0.21923281 0.41555652 0.052115627
0000a0 4c a4 05 be 6a 66 3f 3e 36 84 91 bd 6e 0b 7e 3d
       -0.13050956 0.18691412 -0.07105295 0.06202262
0000b0 58 2e 1e bc 8a 62 35 be f4 7f dd 3d 3f 36 37 3e
       -0.009654604 -0.17713371 0.10815421 0.17891787
0000c0 f8 51 44 3e fe ec 39 3d ea 0f 4e 3e d1 46 31 be
       0.19171894 0.04539203 0.20123258 -0.1731217
0000d0 f0 e0 5d be 52 1f 47 be 6c 30 15 be f7 21 03 bd
       -0.21667838 -0.19445542 -0.14569253 -0.032014813
0000e0 e0 7f a2 3b 30 27 18 be 4e 47 0a 3f 81 de 3b be
       0.0049590915 -0.14858699 0.5401505 -0.18346597
0000f0 68 90 6b be 2e 95 8e 3c cf 3b f9 3d 5c 11 31 be
       -0.23004305 0.017405119 0.12169611 -0.17291778
000100 2e 9e df 3e 32 19 7b bd 34 97 1a be 78 1d b3 bc
       0.4367537 -0.061303325 -0.15096742 -0.021864638
000110 6a c7 c4 3e 96 ee ea bc 2d 5e fb 3d 0a 54 93 be
       0.3843339 -0.02867822 0.12273822 -0.28775054
000120 bd 74 ba 3d 20 9f 39 bc 13 43 e5 3d c6 be b9 be
       0.09104297 -0.011329442 0.11194434 -0.3627836
000130 1e 97 f9 bd 7d 29 75 3e 96 ca b2 3d 39 b8 a3 3e
       -0.121870264 0.23941608 0.087300465 0.31976488
000140 5a 70 ef 3d 47 be 89 be 67 b1 75 bc 68 5f d2 3d
       0.11691351 -0.26902983 -0.014995909 0.102721035
000150 e0 00 51 bd 6f 95 4d be 74 b2 ec 3e 0e 44 e3 bc
       -0.051026225 -0.20076536 0.462299 -0.027742412
000160 b8 35 d3 3e 32 e9 84 3d f4 09 87 3e 86 92 89 be
       0.41251922 0.06489791 0.2637478 -0.268696
000170 f4 3b a2 be 4e a5 bb 3d 39 14 91 3e 4e 48 c9 3e
       -0.31686366 0.09162389 0.2833574 0.39312977
000180 c1 6e 42 be d7 06 ab 3b ab 34 07 be da 70 76 3d
       -0.18987562 0.005219321 -0.13203685 0.060166217
000190 d5 0b 44 bd 56 49 18 bd dc e5 de bc 68 da 06 be
       -0.047862846 -0.037179314 -0.027209215 -0.13169253
0001a0 e1 fc 4c 3e 68 2f 9b be 60 20 4a 3c 90 20 76 3e
       0.2001834 -0.30309606 0.01233682 0.24035859
0001b0 b3 a0 8a bd 40 f7 6e 39 2c 6c b1 3e 69 46 1e bd
       -0.06768932 0.00022789557 0.3465284 -0.038641367
0001c0 33 ac 13 3d 56 6a b0 3d f6 ab 5c 3e b1 68 a1 bd
       0.036052894 0.08614032 0.21549973 -0.078812964
0001d0 6d 51 9a 3e 49 fb ae be 96 ea b0 3c ab be 6b 3e
       0.30140248 -0.3417609 0.021596234 0.23021953
0001e0 a3 b2 8a 3d 6f 06 55 3e f9 79 71 3e 98 12 a1 3e
       0.067723535 0.20803235 0.23581685 0.31459498
0001f0 f1 9a ab bd 79 f0 b2 3e 55 16 60 3e 3b 32 d4 be
       -0.08379162 0.3494909 0.21883519 -0.41444573

Model61.1/decoder_1_0_depth_BN/FusedBatchNormV3 f4 [128]
000000 d3 88 5a 3e 94 f0 28 be 00 f5 60 be 80 3b 90 ba
       0.21341257 -0.16498023 -0.2196846 -0.001100406
000010 2f e5 5d be 8e 54 fe 3e 53 f0 d6 3d 91 c9 ee 3e
       -0.21669458 0.49673885 0.10495057 0.46638158
000020 1c 81 07 3d 39 03 f6 3e 41 f8 fc 3e b4 b6 7a be
       0.033082113 0.48049334 0.49408153 -0.24483758
000030 65 29 a8 be 61 2b 3c 3e a8 44 31 bf ec 4e 3c be
       -0.32844082 0.18375923 -0.69245386 -0.18389481
000040 82 fb d6 be 2d e8 0f bf e2 7e 1b be 8a b6 6c 3f
       -0.4198876 -0.5621365 -0.1518512 0.9246603
000050 40 81 36 3f c4 dc 92 3d c0 9e 0c be 5b fc d0 3e
       0.7129097 0.07171014 -0.13732433 0.40817532
000060 59 34 67 be e8 6d 35 3f 44 d6 7b bd 44 03 ae be
       -0.22578563 0.7087083 -0.061483636 -0.33986866
000070 7a 2a 60 bf 95 b2 9c 3e 64 eb 6d bd 00 ad c1 be
       -0.87564814 0.30604997 -0.058085814 -0.378273
000080 e0 f6 ad bd ab b9 82 3e 89 57 c3 be 57 91 17 bf
       -0.08494353 0.25532278 -0.38152722 -0.59206146
000090 f1 c3 3b bf c6 88 a0 be 12 31 dc be 50 1d 18 3c
       -0.7334586 -0.3135435 -0.43006188 0.009284332
0000a0 58 83 39 bf eb a4 b3 be c6 05 8b bd ca 91 70 bf
       -0.7246604 -0.3508676 -0.067882106 -0.93972456
0000b0 4c a8 c7 be 45 31 6c bf fa 57 86 bd 06 a7 90 bd
       -0.38995588 -0.9226268 -0.06559749 -0.07063107
0000c0 12 4f c5 3e 43 b8 b4 be e4 1e 3e 3f 78 99 26 3f
       0.38536888 -0.3529683 0.74265885 0.65077925
0000d0 37 11 82 3f ac 74 cf 3f 2c 3a 92 be 51 b9 e4 be
       1.0161504 1.620748 -0.28560007 -0.44672635
0000e0 b1 71 20 bf 09 6a 87 3f 64 36 80 3e 3c d2 e9 bd
       -0.6267348 1.0579234 0.25041497 -0.11417052
0000f0 26 b0 52 3f 32 a2 9b 3e 14 28 98 bd 15 b1 fc be
       0.8230003 0.30397183 -0.07429519 -0.49353853
000100 4b 9f 8d 3e 60 b3 44 bd 56 60 aa 3e 95 ce 5f be
       0.27660593 -0.048022628 0.33276623 -0.21856149
000110 22 43 25 bf 02 7a 15 bf 9d 25 8c 3f ae 31 e3 be
       -0.6455556 -0.58389294 1.0948979 -0.4437384
000120 28 57 87 3d f0 9f 49 bf 6b 48 92 3e d4 a5 cd be
       0.066084206 -0.7875967 0.28570876 -0.4016558
000130 fe 10 02 3e 92 37 12 bf a7 8e 0f be ba 1c 6a 3e
       0.12701795 -0.57116044 -0.14019261 0.22862521
000140 f7 5d 75 be 1d 30 09 bf b5 81 75 3f 00 7e a0 be
       -0.23961626 -0.5358904 0.9590104 -0.3134613
000150 86 56 0a bf a4 2d 26 be 25 2b c0 3e 44 c1 11 bf
       -0.54038274 -0.16228348 0.37532917 -0.56935525
000160 2c d8 2d bf f5 cf 08 3f d1 55 10 bf 30 39 6d be
       -0.6790798 0.5344232 -0.56380945 -0.23166347
000170 38 af 9f be e0 20 96 be 9b 51 91 3f 84 70 fa be
       -0.3118837 -0.29321957 1.1353029 -0.48913968
000180 42 a3 2c bf 4b da b6 be 32 78 2c 3f 14 84 b8 3e
       -0.6743661 -0.3571342 0.67370903 0.36038268
000190 b5 97 31 3f 30 10 10 3f 9d 14 11 3e 31 da 1c bf
       0.6937211 0.562747 0.1416802 -0.61270434
0001a0 a8 e9 9c be eb 1c 8f be 56 1f af be 48 55 69 bd
       -0.30647016 -0.2795175 -0.34203595 -0.056966096
0001b0 a1 fb 7e 3f bc 73 3c bf 6d 51 b7 be 1a d0 8f 3f
       0.99602705 -0.73614097 -0.3580431 1.1235383
0001c0 7a f9 ce be 35 2c 97 be bb 28 b0 be df 48 25 bf
       -0.4042471 -0.29525915 -0.34406075 -0.6456432
0001d0 09 c8 97 3e dc 8f 17 3f 2f 1f 60 3f 8f 96 e6 3e
       0.29644802 0.59203887 0.8754758 0.45036742
0001e0 d2 52 2f 3f af 41 df 3e a6 da 56 3f e8 35 30 bf
       0.6848575 0.436048 0.8392738 -0.68832254
0001f0 b5 cb 6e 3f cc 32 18 3f 3c 4d ab 3e e0 b9 ef bb
       0.9327958 0.5945251 0.33457363 -0.007315859

Model61.1/decoder_1_0_expand_BN/FusedBatchNormV3 f4 [128]
000000 b3 af ef 3d 53 10 b6 3e 5d cc 87 be 4e f5 9e be
       0.11703434 0.3555933 -0.26523104 -0.31046528
000010 70 cb ca be 0c 8c a2 3e d0 7c 99 3d 82 e1 97 3d
       -0.39608335 0.31747472 0.07494509 0.07416059
000020 c8 7b 0b 3e bf 5f af 3e 9c b2 c4 bd ac 3d 9c 3d
       0.13621438 0.34252736 -0.096043795 0.076289505
000030 e6 c2 73 be b6 f8 a5 3d 06 d3 3b bd 6c fd 34 be
       -0.23804817 0.081040785 -0.045855545 -0.17674798
000040 49 ac 11 3e be ac e5 be e0 0c b4 3e ee 58 a6 3e
       0.14225878 -0.44858354 0.35166073 0.32489723
000050 63 21 d6 3e 3d 51 f6 3c d4 c7 00 3e b7 a9 aa 3d
       0.41822347 0.030068034 0.12576228 0.08333152
000060 64 fd 9b bb ce 8d 1d 3e 14 83 0c be 8c a7 0f bd
       -0.004760431 0.15386125 -0.13721877 -0.035071895
000070 c0 00 0c 3c 80 49 e4 bc 3e 8a 19 bc a6 01 3e 3e
       0.008545101 -0.027867079 -0.009371338 0.18555316
000080 ea 85 db 3e 87 5e c8 3e 94 d9 b1 be 32 dc 45 3d
       0.42875606 0.3913462 -0.3473631 0.048305698
000090 5a 48 c3 3b 98 15 95 3e 76 b9 90 3d 78 de 62 3e
       0.0059595527 0.29118037 0.07066624 0.22155178
0000a0 4a ad 5f bd 74 3b ed bd 04 d8 c8 bc 4a 31 65 3e
       -0.05460862 -0.115836054 -0.024517067 0.22382084
0000b0 56 b0 fd bc 30 7a 0c 3d ba 65 80 3e 7c f4 9c 3e
       -0.030967873 0.034296215 0.2507761 0.30655277
0000c0 38 93 0d 3f e6 0a ac bd 9e 6f 99 3e 92 56 ba 3e
       0.55302763 -0.08400516 0.2996797 0.36394173
0000d0 5c a9 81 3e 40 e8 1e 3f 4c 4f fd bc 26 43 d9 3e
       0.25324523 0.62073135 -0.0309216 0.42434043
0000e0 ff 3d 2f be fd 63 81 3e 11 da fb bd ba 09 6a 3d
       -0.17113493 0.25271598 -0.12297452 0.057138182
0000f0 15 0e 80 3e 70 ea 5e be ec d2 1a 3d 0f cf a0 be
       0.25010744 -0.21769118 0.037798807 -0.31407973
000100 32 b8 58 3e 94 d2 d3 3c f5 0d ce 3d 20 a8 bd bc
       0.21164015 0.025857247 0.10061256 -0.023151457
000110 4f 8e 1b 3e 8f 58 84 3e 6c 05 4f 3e 4d 38 91 3c
       0.15191005 0.25848815 0.20216912 0.017727042
000120 a2 8d 12 3e 24 c5 01 be c0 8b a2 3a c4 13 e2 bd
       0.14311841 -0.1267286 0.0012401268 -0.11038926
000130 46 88 7a 3e 0c 39 1b be 58 72 06 3e f0 15 8f bd
       0.24466047 -0.1515848 0.13129556 -0.06986606
000140 fa e2 6f bc 3b ca 4b be 2b 31 a9 3e a0 83 3d 3e
       -0.014641518 -0.19901364 0.33045325 0.18507242
000150 e9 17 89 bd c6 e2 0b 3e 16 25 ae 3d 97 45 d3 bd
       -0.066940136 0.13660726 0.08503167 -0.103160076
000160 a9 63 e0 bc 9e c9 c1 3e cc 29 df 3d e0 73 63 3e
       -0.027391272 0.37849134 0.10896644 0.22212172
000170 e8 d3 b5 3d 01 b6 ab bd 67 61 c6 3e 24 a4 a1 3d
       0.088783085 -0.08384324 0.38746187 0.078926355
000180 a3 47 a9 be 74 39 12 3e 2e 6d 57 3e cf ad a8 3e
       -0.33062467 0.14279729 0.21037742 0.32945105
000190 94 d8 02 3f d5 81 d6 3d 26 76 8a 3e 60 e9 47 3b
       0.5111172 0.10473982 0.27043265 0.0030504093
0001a0 a2 8e 6a 3d 68 75 ca 3e 52 1f 5f 3d e2 c8 ae 3e
       0.05726493 0.395427 0.05447323 0.34137636
0001b0 ef 60 cb 3e ee bc 9e bd df 86 ea bd 67 f3 d0 3e
       0.39722392 -0.07750879 -0.11451506 0.408107
0001c0 45 25 da be 8d 60 5e 3e 20 37 ad be c0 b3 62 3d
       -0.4260656 0.21716519 -0.3383112 0.055347204
0001d0 43 cc 18 be 75 88 89 3d 80 2b 02 3f 71 e3 62 3e
       -0.1492167 0.0671548 0.50847626 0.22157075
0001e0 b2 12 8e 3e 5d ad 56 3e 2c a9 f7 3e 8d 32 bf bd
       0.27748638 0.2096457 0.48371255 -0.09335814
0001f0 fa 57 6a 3e cb f6 61 3e 34 ca b0 3e 5d 23 86 3e
       0.22885123 0.220668 0.3452927 0.26198855

Model61.1/decoder_1_1_depth_BN/FusedBatchNormV3 f4 [128]
000000 76 f8 85 be 90 21 15 3f 70 c9 8b 3f c5 db 89 be
       -0.26166123 0.5825434 1.0920849 -0.26925483
000010 ed 59 23 bf e2 49 1d 3f 65 13 b8 3f 68 f8 2f 3d
       -0.6380909 0.6144086 1.4380919 0.042961508
000020 aa 18 38 3f 14 0b 9a bd 0b f1 90 3f 62 a9 00 bf
       0.71912634 -0.07521644 1.132356 -0.5025846
000030 00 e7 50 3b ec 4e 2b 3e 82 30 37 bf 00 c3 d4 3b
       0.0031875968 0.16729325 -0.7155839 0.0064929724
000040 cb 77 02 bf 63 d1 eb be 5d 9e 79 3e 8f 45 9f 3d
       -0.5096404 -0.46058187 0.24376817 0.07776939
000050 bf 15 f8 be 00 58 29 3f 91 75 31 be 42 8f e8 be
       -0.4845409 0.661499 -0.17330004 -0.45421797
000060 f6 e2 3b 3f 1a 44 a3 bd 5c b2 54 be e8 69 5e be
       0.7339319 -0.07971974 -0.20771164 -0.21720088
000070 20 50 f6 bc 51 4a 0a bf d8 aa f7 3f aa af a5 3f
       -0.030067503 -0.5401965 1.9349012 1.2944233
000080 03 fd 4c 3f 1d 24 08 bf f4 53 57 3f de 11 01 bf
       0.80073565 -0.53180104 0.8411248 -0.5041789
000090 a9 49 44 bf 18 24 50 3f d8 79 47 bd d4 69 53 3f
       -0.76674896 0.81305075 -0.048700184 0.82583356
0000a0 6a 2a db 3e 76 6f 92 be 52 63 13 be b2 90 f0 3f
       0.42805797 -0.28600663 -0.14393356 1.8794158
0000b0 02 e1 06 bf 18 d2 68 bf 2a 71 24 3f 81 4e 44 be
       -0.52687085 -0.9094558 0.64235175 -0.19170572
0000c0 0c 8d 94 3e 1c a2 ba be b4 4b e2 bd 86 26 21 bf
       0.2901386 -0.36451805 -0.110495955 -0.6294941
0000d0 d6 4f 22 3f ce fc f6 be 42 37 2d be 7a 09 41 be
       0.6340307 -0.4823975 -0.1691561 -0.18851271
0000e0 71 c9 45 bf 74 1f f5 be ba c9 fc 3e a8 60 09 3c
       -0.772605 -0.4787556 0.49372655 0.008384861
0000f0 7a c7 8c be 30 07 91 3f e0 38 48 3f f7 d0 fb bd
       -0.2749594 1.1330318 0.78211784 -0.12295716
000100 06 c4 56 3f 9c 97 99 bd d2 7e a3 3f 1d 66 15 bf
       0.8389286 -0.0749962 1.2773077 -0.5835894
000110 aa 14 3e 3f 86 14 6e bd 82 49 a3 be ae 8c fc be
       0.7425028 -0.05812504 -0.3189202 -0.4932608
000120 22 de 08 be bd dc 4c be 95 2f 74 3f 14 a8 03 be
       -0.13365987 -0.2000608 0.95385104 -0.12857085
000130 0a 4d d0 be 8b a6 30 be 8a 80 19 bf 92 bf 86 be
       -0.40683776 -0.17251031 -0.5996176 -0.26318032
000140 86 c9 33 3f 80 b8 59 3f 6c 67 1f be 66 11 09 be
       0.70229375 0.8504715 -0.15566796 -0.13385543
000150 5e 0f 26 3e 36 ac 1f bf 6b 18 c5 3e 4c 24 7c be
       0.162168 -0.6237215 0.38495192 -0.24623221
000160 53 69 d5 3f 60 ee e1 3e 63 ca 7b be f3 6a a5 be
       1.6672767 0.44127178 -0.24588923 -0.32308158
000170 08 e4 8c be 80 db 80 3f 88 df 7d 3f 04 59 c8 3e
       -0.27517724 1.0066986 0.99169207 0.39130414
000180 3a 64 a0 3f 00 a5 69 3d 49 14 1d bf 34 a2 31 bf
       1.2530587 0.057042122 -0.6135908 -0.6938813
000190 4f b1 98 3f 40 a7 91 3f 77 60 2e 3e e4 c1 0b 3e
       1.192911 1.1379166 0.17028986 0.13648182
0001a0 c3 e6 e1 be 20 19 2b 3f 5c ed 1c bf 24 b0 90 be
       -0.4412137 0.6683521 -0.6129968 -0.28259385
0001b0 40 e0 4a bc bc d5 42 3f 23 7e ae 3f 9c d8 ff 3f
       -0.012382567 0.7610738 1.3632244 1.9987979
0001c0 ac ff 05 3e 5f 6f e8 3e 7f 8f d9 3f 53 85 d2 be
       0.13085812 0.4539747 1.6996917 -0.41117343
0001d0 7f 89 0b bf 6a 54 f9 3d 05 d0 33 bf b4 c9 52 bf
       -0.5450668 0.12174304 -0.7023929 -0.82339025
0001e0 ee ab 2d bf 46 1e 46 3f c6 22 18 3f a5 c8 9a 3f
       -0.6784047 0.77389944 0.5942806 1.2092482
0001f0 ee 34 04 3f 08 76 51 3f 9c 45 c5 be ba 5f fd bc
       0.51643264 0.81820726 -0.3852967 -0.030929435

Model61.1/decoder_1_1_expand_BN/FusedBatchNormV3 f4 [128]
000000 b2 23 a5 bd 22 5b 58 3e 0e 39 23 3e 62 74 91 bd
       -0.08063449 0.21128514 0.15939733 -0.071022764
000010 ea 12 48 3d b3 86 31 3e 57 ef f0 3e 08 97 cc 3c
       0.048846163 0.1733654 0.47057602 0.024974361
000020 b8 ed 25 3e 3b 00 8d 3e 5c 38 d5 3e b7 1e 64 3e
       0.16203964 0.27539238 0.4164456 0.22277342
000030 94 67 de 3e 6a d0 68 3e ee 20 3b 3e 06 80 11 3e
       0.434384 0.22735754 0.1827428 0.14208993
000040 40 c6 07 3a 80 f3 0c 3c bf 6c bb 3e 31 76 2c 3e
       0.0005179383 0.008602977 0.36606404 0.16841961
000050 1c 96 9c bc f2 a8 63 be 0e c2 39 be ad 9a 03 3e
       -0.019114546 -0.22232416 -0.18140432 0.12851973
000060 3e 36 95 3d f2 6b 98 3e e2 0e b9 bd 98 14 84 3e
       0.072857365 0.29769856 -0.09036042 0.25796962
000070 84 4c 99 3e 59 38 9d 3e 50 22 37 3f ca db 00 3f
       0.2994119 0.30707052 0.7153673 0.5033537
000080 9e c6 64 3e a4 bc 8a 3e 6c 23 f9 3d f0 1b c7 bd
       0.22341391 0.27097046 0.12164959 -0.097221255
000090 36 c4 78 3d ce af 87 3d 9e 32 72 3e a6 82 0a 3e
       0.060733996 0.06625329 0.23652121 0.13526401
0000a0 90 cf c3 be 37 89 ce 3d 22 74 a0 3e b9 59 17 3f
       -0.38244295 0.100847654 0.31338602 0.5912128
0000b0 96 ed 36 bd 1f d7 ab 3e 9b eb 2a bd 12 69 00 bf
       -0.044660173 0.33562562 -0.041728597 -0.50160325
0000c0 ae b0 9c 3e ad 76 03 3d 50 79 c9 3d 73 db 54 3e
       0.30603546 0.0320956 0.09837592 0.20786838
0000d0 90 65 03 bc 7c 34 51 be 0e ba 99 3e 60 ea 44 3b
       -0.00801982 -0.20430177 0.3002476 0.0030046925
0000e0 15 01 cf 3e c7 76 60 3e aa a2 f6 3d 25 0e 82 3e
       0.40430513 0.2192031 0.120427445 0.25401416
0000f0 47 98 61 3e 7e e6 12 3e 4e dd 90 bd 06 04 a4 bc
       0.22030745 0.14345738 -0.070734605 -0.02002145
000100 b5 2a f8 bd 94 67 28 be bf 90 f7 3e f0 a3 94 3b
       -0.12117521 -0.16445762 0.4835262 0.0045361444
000110 6b bc 82 3e fe 79 2b 3e 58 c1 9f 3e bc ee 01 3f
       0.25534377 0.16745755 0.31202197 0.50754905
000120 c7 b9 05 3f 77 c2 22 3e 05 a4 15 3e 6f 1f e1 bd
       0.522366 0.15894495 0.1461335 -0.109923236
000130 16 8c 66 3d ac 9c ad bc 2e e7 a5 3e 78 ab 92 3c
       0.05628594 -0.021192871 0.3240294 0.017904028
000140 26 63 29 3e d7 6f eb 3e 1a ef 13 3e c4 e7 08 bf
       0.16541728 0.45983765 0.14446679 -0.53478646
000150 23 ca 4c be 72 4c 28 be 8b 8c 5f 3e 65 12 f2 3e
       -0.19998984 -0.16435412 0.21830957 0.4727966
000160 fd 17 f6 3e e2 81 b7 be 70 38 b8 3e 35 1c 09 bd
       0.48065177 -0.3584128 0.35980558 -0.033474166
000170 75 54 cd 3d 38 6a 85 3e 96 d8 ba 3e 44 32 61 3e
       0.100258745 0.260576 0.36493367 0.21991831
000180 f8 bf 22 3e 2a dc ea 3d 1c 84 29 3d 84 a6 40 be
       0.15893543 0.11467774 0.041385755 -0.1881352
000190 3d db dd 3e b4 76 e3 3e 13 f2 23 3e 3b 4a aa 3d
       0.43331328 0.444265 0.16010313 0.083149396
0001a0 98 84 0f 3d 9d b9 bf 3e b8 2b c2 3d c8 53 92 3e
       0.03503856 0.374463 0.09480995 0.28579545
0001b0 90 ac 55 3e ba 88 77 3e 5e 7c eb 3e b0 29 30 3f
       0.20866609 0.24173251 0.45993322 0.6881361
0001c0 86 c6 9b 3e 7d 26 e5 3e 9b c3 1e 3f d6 09 80 3e
       0.304249 0.44755927 0.6201722 0.25007504
0001d0 7b 53 a9 3d e1 c7 a0 3e f2 a4 9e be a4 94 07 3d
       0.08267876 0.31402496 -0.30985218 0.03310074
0001e0 b5 6f e2 3d 6c 5a 17 3e a1 d1 a9 3e 3a b0 d5 3e
       0.11056463 0.14780587 0.33167747 0.41736013
0001f0 dd 7f 9d 3e 16 13 97 3e 24 86 cb 3e 55 0b e8 3e
       0.30761614 0.2950675 0.3975078 0.45321146

Model61.1/decoder_2_0_depth_BN/FusedBatchNormV3 f4 [128]
000000 03 80 84 3f 0d ba c2 3e 72 e6 1a 3f db b9 18 bf
       1.0351566 0.3803257 0.6050788 -0.5965859
000010 25 15 41 3f 40 bb 87 bc da d5 39 3f 77 46 e4 3d
       0.7542289 -0.01656878 0.72591937 0.111462526
000020 0b ec 10 bf c0 45 80 3e c0 65 51 3c ec af 63 bd
       -0.56610173 0.25053215 0.012780607 -0.055587694
000030 af fe 1e 3f 76 3a d8 bd b5 ba 8b be 92 98 1d 3f
       0.62107366 -0.105580255 -0.27290884 0.6156093
000040 72 50 a8 bf 6e 3d 9c bf b6 29 58 be c6 5b bb bd
       -1.314955 -1.2206247 -0.21109661 -0.09148364
000050 9f 24 c0 3e f6 66 07 bf 46 a2 0f 3f ec a4 a9 3f
       0.3752794 -0.5289148 0.56106985 1.3253455
000060 c8 94 e1 3e f9 b7 47 bf f8 e1 39 3d 56 25 9d 3e
       0.44058824 -0.78015095 0.045381516 0.30692548
000070 14 4f f5 3d f5 a9 58 bf 6a bb a6 be 15 90 6c bf
       0.119779736 -0.84634334 -0.3256486 -0.9240735
000080 79 97 5d 3f 74 2e a4 bd d8 43 2c bd de 43 b2 3e
       0.86559254 -0.08016673 -0.04205689 0.34817404
000090 c8 78 67 be a4 9f 7a bf 7c 60 85 3f 7d c3 61 3f
       -0.22604668 -0.9789984 1.042007 0.88188916
0000a0 58 09 de be 67 5b 13 3f 4c 11 15 3e 84 4d ab 3e
       -0.43366504 0.57561344 0.1455738 0.33457577
0000b0 a6 42 d1 bd e0 e6 6f be 57 58 6f bf e2 22 a6 3d
       -0.1021779 -0.23427916 -0.9349417 0.08112122
0000c0 a6 4b 99 3f 48 66 43 3f 83 59 22 bf a3 a3 2c bf
       1.1976211 0.76327944 -0.63417834 -0.6743719
0000d0 74 c8 55 bf bc 8d 1d bf 5a 29 ad 3d 38 4d 46 be
       -0.8350899 -0.61544394 0.08455153 -0.19365394
0000e0 81 a2 8c be 51 43 67 3f 5a 9d 13 3f 0a 04 43 bf
       -0.2746773 0.9033709 0.57661974 -0.7617804
0000f0 81 41 8d bd 34 7a b9 3d 71 3a 50 3f 9c dc 2b bf
       -0.068972595 0.090565115 0.81339175 -0.671335
000100 71 33 07 bf bb b6 18 3f 62 e7 99 3e bc ed 76 3f
       -0.5281287 0.59653825 0.30059344 0.96456504
000110 0a 13 4c 3f 99 b1 d0 be 77 40 a9 bf 70 24 2c bf
       0.7971655 -0.40760496 -1.3222798 -0.672431
000120 18 4f a9 bd 94 62 69 bd 24 d5 e5 3e 2e 82 3c bf
       -0.08267039 -0.056978777 0.44889176 -0.7363614
000130 dc 3c 82 bf 3a 12 09 bf c4 84 93 3e be fb 44 3f
       -1.0174823 -0.53543437 0.2881223 0.7694663
000140 78 4f 93 bc a8 ae aa 3d 7a a4 cd 3e 1c f9 59 3f
       -0.01798223 0.08334094 0.40164548 0.85145736
000150 da 9d 22 bf 88 ed 1e bf 44 f6 7a 3f da b3 10 3f
       -0.6352211 -0.62081194 0.9803202 0.5652443
000160 60 f7 dd bc d5 28 02 3e 48 79 08 be f0 18 0e be
       -0.027095497 0.12710889 -0.13327515 -0.138767
000170 0d 02 9a 3f c0 88 92 bd 88 69 e9 3f e7 9d 58 bf
       1.2031876 -0.07154989 1.823533 -0.8461594
000180 3a 9d db 3e 49 07 ee be 5a 4f 08 3f dc 6c 8a 3e
       0.42893392 -0.46489933 0.5324608 0.27036178
000190 c8 26 ad 3c e0 5d 85 be e6 e4 01 3f 89 55 45 3f
       0.021136656 -0.26048183 0.50739896 0.7708364
0001a0 8f 50 37 3f 4e b9 3d bf 68 23 73 bf d7 7b 75 3f
       0.716073 -0.7411088 -0.949759 0.9589209
0001b0 be 7b 1c 3f fe f2 14 3f 11 e4 98 3e 17 09 30 bf
       0.61126316 0.58183277 0.298615 -0.6876387
0001c0 12 af 38 bf d6 ca 1a be 5e 47 6f bf f1 88 3b 3f
       -0.72142136 -0.15116438 -0.9346827 0.7325583
0001d0 53 7f 81 3e 58 9c 33 3f 1c 26 a2 bf 41 61 27 3f
       0.25292453 0.70160437 -1.266788 0.6538277
0001e0 c2 e9 b7 3e ae 29 0b 3f 16 86 5b 3e 9c 20 a8 3d
       0.3592053 0.54360473 0.21437868 0.08209345
0001f0 5c 0f a1 3f 54 95 e6 be 7b 8a 15 3e b6 5e 41 3f
       1.2582812 -0.45035803 0.14603607 0.7553514

Model61.1/decoder_2_0_expand_BN/FusedBatchNormV3 f4 [128]
000000 47 ed d0 bd c6 8a aa 3d e6 bc de 3e 86 40 ce be
       -0.10201507 0.0832725 0.43503493 -0.40283602
000010 0f 5b b2 3e 0e a0 7e be 18 39 c3 3e 32 3a ac 3e
       0.34835097 -0.24865744 0.38129497 0.3363815
000020 38 a2 97 bd 61 a6 b4 3e a0 a3 ac 3e 1c 8b c0 3e
       -0.07403988 0.35283187 0.33718586 0.37606132
000030 0d 77 87 3e ca f3 eb 3d 14 49 92 3e 88 f0 f3 3e
       0.26458016 0.115211084 0.2857138 0.47644448
000040 df 5f bc 3d fc 42 12 3d 43 51 15 bf d3 40 8b 3e
       0.091979735 0.035708413 -0.5832712 0.27197894
000050 46 67 b7 be 1b 26 38 3e c8 b2 28 3e c2 4d 00 3f
       -0.3582098 0.17983286 0.1647445 0.5011865
000060 2e 1e 8a be 08 c0 00 bf 11 5b 86 be 19 af 86 be
       -0.2697615 -0.50293016 -0.26241353 -0.26305464
000070 e9 13 a6 3e de 98 65 be 79 12 31 3e 58 eb 74 be
       0.32437065 -0.22421595 0.17292203 -0.23917902
000080 f2 46 0e be 03 91 c3 3e 39 61 24 3e ec 5a 9a 3e
       -0.13894251 0.38196573 0.16052713 0.30147493
000090 15 e6 67 3e fe 8b 29 be 42 d7 10 3f 2a 50 b4 3e
       0.22646363 -0.16557309 0.5657846 0.3521741
0000a0 22 2e 69 be 62 d9 32 bd 6b 2e 27 3e 52 84 93 be
       -0.22771505 -0.043664344 0.16326301 -0.2881189
0000b0 70 bd 48 3e 5e c5 7e 3e e2 2d 1a bf 27 38 3b bb
       0.19603515 0.24879977 -0.6022626 -0.0028567405
0000c0 f6 d9 ff 3e 44 4e 6e 3e ce ac 09 3e 81 5c 75 be
       0.49970978 0.23272043 0.13444826 -0.23961069
0000d0 d8 77 67 3e 47 0d 65 be 54 b6 61 3e 5c 24 21 3f
       0.2260431 -0.22368346 0.22042209 0.62946105
0000e0 f2 6f 84 3e 46 84 e0 3e 79 23 d4 3e 00 00 6b 38
       0.25866657 0.43850917 0.41433313 5.6028366e-05
0000f0 d4 66 bb 3e 65 38 22 3f 81 ba e0 3e cc 47 85 be
       0.3660189 0.633673 0.4389229 -0.2603134
000100 fa 88 4f bd 9d 49 a2 3e 51 d1 23 be a5 fb b6 3e
       -0.05066774 0.31696787 -0.15997817 0.35738865
000110 1b 20 55 be 40 97 84 3d 80 28 08 be 74 67 a2 3e
       -0.20813029 0.06474161 -0.132967 0.31719553
000120 ab a4 0d be 08 cb bf be d4 27 04 bf c4 a0 07 3e
       -0.13832347 -0.37459588 -0.5162327 0.13244921
000130 5e 1b 9d bd 72 2a 08 bf c1 b2 f4 3e 4e ea 34 3e
       -0.076712355 -0.53189766 0.47792628 0.17667505
000140 9e 51 eb 3e 39 00 a0 be 0a c7 e1 3d 58 79 6d 3e
       0.45960706 -0.3125017 0.11024292 0.2319082
000150 c0 a4 88 3b 01 8d a5 be 38 2d bc 3d 08 fb 01 3f
       0.0041700304 -0.3233414 0.09188312 0.5077367
000160 34 b5 7d 3e 32 6e 27 3d b2 2a f3 be 5e 8e d3 3e
       0.24776155 0.040876575 -0.4749351 0.41319555
000170 1d ad ec 3e 01 bc ea 3e a7 9c 2a 3f a9 e0 5e be
       0.46225825 0.4584656 0.6664528 -0.21765389
000180 3d d4 3b 3e 84 3d 3e 3e 36 bf 3b 3e d5 93 b1 be
       0.18342681 0.18578154 0.1833466 -0.346831
000190 f3 c0 83 3e 2f ea 93 be 5e 10 a8 be f1 47 a9 3e
       0.25733146 -0.28889605 -0.32824987 0.330627
0001a0 64 52 14 3e 53 61 90 3e 06 7d 8c 3e 65 d2 b7 3c
       0.14484555 0.28199252 0.27439135 0.022439191
0001b0 bc 5d ba 3e 8a c0 9c 3e 81 10 fc 3e 6c 14 f0 be
       0.3639964 0.30615646 0.4923134 -0.4689058
0001c0 f9 76 2c be 96 4d e3 3e 02 b4 89 be 47 e9 6d 3e
       -0.1684226 0.4439513 -0.26895148 0.2323352
0001d0 50 2e ba be c4 0a b3 3e c4 b8 23 be cc bb b3 3e
       -0.3636346 0.3496915 -0.15988451 0.35104215
0001e0 48 5e b4 bb c9 b4 5d 3e 3e cf b2 3e ff b9 07 3f
       -0.0055044033 0.21650995 0.34923738 0.5301818
0001f0 22 4f 19 3f 61 1b 5f 3e 47 8c e8 be 7c 72 ca 3e
       0.5988637 0.21787788 -0.45419523 0.3954047

Model61.1/decoder_2_1_depth_BN/FusedBatchNormV3 f4 [64]
000000 d6 24 c6 be e9 9f 35 3f 64 f3 84 bd 34 49 72 be
       -0.3869998 0.7094713 -0.064917356 -0.23660737
000010 d4 bb 43 3f d8 70 6b 3f f2 83 64 3f 10 63 72 3f
       0.7645848 0.9196906 0.8926383 0.9468241
000020 da bb 8b bf 29 37 89 bf 1e 70 97 bf f9 5f 91 be
       -1.0916703 -1.0719959 -1.183109 -0.28393534
000030 81 09 65 3f 18 b3 99 3f b6 47 9c be 4c 43 0c be
       0.89467627 1.200778 -0.3052346 -0.13697547
000040 19 84 8a bf 74 21 bf be 0c 75 93 3f c0 19 6a 3d
       -1.0821563 -0.3733021 1.1520095 0.057153463
000050 37 94 97 3f 5c 3d 36 bf d6 71 80 3f a0 a1 86 3f
       1.1842107 -0.71187377 1.003474 1.0518074
000060 c2 fa fe bd 34 f7 53 bf 43 e1 89 3f 44 70 41 bf
       -0.12450172 -0.8279908 1.077187 -0.7556193
000070 f2 88 45 bf 92 41 7b bf 6c 19 98 3f 43 4a 94 3f
       -0.77162087 -0.9814693 1.1882758 1.1585163
000080 40 fd bf 3f cc 4c 1d bf fc b7 27 3f 9f 58 a7 be
       1.4999161 -0.6144531 0.6551511 -0.326848
000090 de 46 56 3f 27 0d 07 bf cb 6e 67 3f 7f 5b 6b 3f
       0.83701885 -0.52754444 0.9040343 0.91936487
0000a0 9f bc 3b be be 6a 31 be 25 2c 10 bf a6 03 8a bf
       -0.18333672 -0.17325875 -0.5631736 -1.0782363
0000b0 9f a5 04 bf b2 e2 06 bf 87 5f 3f bf be 6f 40 3f
       -0.5181522 -0.5268966 -0.7475514 0.75170505
0000c0 10 e3 4d 3e f0 dc e4 be 0b a2 d2 be 5c 80 0c bf
       0.20106149 -0.44699812 -0.41139254 -0.5488336
0000d0 e0 9a 1f 3f 48 40 f5 bd 67 05 6a 3f 6a 1e cd be
       0.62345695 -0.11975151 0.91414493 -0.40062267
0000e0 d0 fe 2a be 74 79 73 be 76 4c 35 3f ec 97 03 3e
       -0.16698766 -0.237768 0.70819795 0.12850922
0000f0 30 97 8c bf 6a b0 61 bf d2 13 4b 3f 95 a0 96 3f
       -1.0983639 -0.8815981 0.7932712 1.1767756

Model61.1/decoder_2_1_expand_BN/FusedBatchNormV3 f4 [64]
000000 17 6c 94 3d 9d f9 b2 3e 61 79 ad 3d d2 cd d2 3e
       0.07247179 0.34956065 0.08470417 0.41172653
000010 58 0c 6b bd 15 26 64 3e e6 dc 81 3e 1c 4e 8c 3e
       -0.05738482 0.22280152 0.25363845 0.27403343
000020 6a ee 04 be 67 83 19 be d0 fa 16 bd bc 3d 86 3e
       -0.12981573 -0.14991532 -0.036860287 0.26218975
000030 52 12 5e 3e 00 1a 1f 3f d0 f4 7c 3d 36 b3 a0 3e
       0.21686676 0.6214905 0.06175691 0.31386727
000040 3f 15 c0 be 1e e9 e2 bd b7 cd 18 3f 9b 05 ca 3d
       -0.3751621 -0.1107962 0.59688896 0.098643504
000050 64 9f 6a 3e 11 2e b7 3e dc 86 4d 3d 18 ab e1 3e
       0.22912365 0.35777333 0.05017744 0.44075847
000060 c0 62 8c 3e 58 cc 99 bd ec a5 f8 3e e7 c7 52 be
       0.2741909 -0.075096786 0.48564088 -0.20584069
000070 28 bf 51 3e f8 4d 20 3d f8 c8 1a 3f cb 74 ed 3e
       0.20483077 0.039136857 0.60462904 0.46378168
000080 22 52 f9 3e 4f 0b 19 bf 78 ab 6c be 20 34 9b ba
       0.48695475 -0.5978288 -0.23112285 -0.0011841096
000090 19 cc de 3e f4 0d 19 3d 1e 81 1f 3e 0e 52 ba 3e
       0.4351509 0.037366822 0.15576598 0.36390728
0000a0 fd 59 a2 3e 92 f0 da 3e 9b a1 dc 3d b9 65 86 3d
       0.3170928 0.42761666 0.10773011 0.06562371
0000b0 90 ef bb 3e 36 6c ff 3d e4 02 a6 3d 18 68 0f 3f
       0.3670621 0.124718115 0.0810602 0.5601821
0000c0 be 96 b7 3d 66 4c 5e be 8a b0 00 be d0 4b 24 3d
       0.08964299 -0.21708831 -0.12567344 0.040111363
0000d0 00 33 b2 3d 14 e6 41 3e 09 89 9f 3e 3e 39 99 3e
       0.08701134 0.18935424 0.31159237 0.29926485
0000e0 e8 74 30 be 10 d1 c6 bc 5f 6f 0d 3f ae a9 c3 3e
       -0.17232096 -0.02426961 0.55248064 0.38215393
0000f0 ec 30 1a bf 23 1d 14 3e 28 86 d8 3d 99 a5 2f 3f
       -0.602309 0.1446424 0.10572463 0.68612057

Model61.1/decoder_3_0_depth_BN/FusedBatchNormV3 f4 [64]
000000 45 ef 99 bf 20 7a 60 3f 28 d0 e4 be a4 3f 46 bf
       -1.2026144 0.8768635 -0.4469006 -0.7744086
000010 9a 2c 02 3f c1 47 39 bf 7b 9c 54 bf 68 2c 58 3f
       0.50849307 -0.7237511 -0.8305127 0.8444276
000020 e1 2e 9f bf f4 64 fe be 74 90 80 bf a9 be 92 3f
       -1.2436181 -0.49686396 -1.0044084 1.1464435
000030 6d e3 23 3f 18 43 4f be fb 5a 84 be 83 fa c3 be
       0.640189 -0.20240438 -0.25850663 -0.38277063
000040 97 96 51 3f ae a1 35 3f 8a be e4 3e e6 0a 5d 3f
       0.81870407 0.7094983 0.4467662 0.86344755
000050 4e 99 09 3e 34 31 3c bf 18 fc d9 3e 20 a9 13 be
       0.13437387 -0.7351258 0.42575145 -0.14419985
000060 92 0c 3e 3f 80 a9 01 bb 14 71 41 3f 3c 74 dd 3e
       0.7423793 -0.0019784868 0.7556317 0.43252742
000070 80 e1 a5 3c 9a 20 94 bf 56 29 fc 3e 55 f0 4c be
       0.020249128 -1.1572449 0.49250287 -0.20013554
000080 5a 78 cc 3f c6 5b 37 be 06 ab b5 3d 40 88 77 3d
       1.5974228 -0.17906103 0.08870511 0.060432673
000090 8b 9e 89 bf a0 fd d9 3c 52 c5 57 3f fa a6 8e 3f
       -1.0751508 0.026610196 0.8428546 1.1144707
0000a0 38 76 25 bf cb e6 87 be 76 e0 cf be ce 7d d3 3e
       -0.6463351 -0.2654327 -0.40600938 0.4130692
0000b0 66 16 02 be ec 49 cc be a6 55 40 bf b7 ad 88 bf
       -0.12703857 -0.39900148 -0.7513069 -1.0678014
0000c0 5c 9e cf 3d 75 61 65 3f c9 7c 5d bf 42 34 f2 3f
       0.101376265 0.8960183 -0.8651853 1.8922198
0000d0 84 f0 a6 bf 0f bd 38 3f 87 f3 8d bf fa 50 55 3f
       -1.304215 0.7216348 -1.1089944 0.83326685
0000e0 bd 54 3e 3f 29 9a 83 bf 36 0a 02 3f 66 39 62 3e
       0.7434805 -1.0281421 0.5079683 0.22092208
0000f0 59 47 6c bf 4a 91 80 bd fb a0 ee be 88 c2 a4 bf
       -0.9229637 -0.06277712 -0.46607193 -1.2871866

Model61.1/decoder_3_0_expand_BN/FusedBatchNormV3 f4 [64]
000000 3d eb 9f 3e 7a ae 90 3e 7c 94 ca bc 30 91 be 3d
       0.3123416 0.28258115 -0.024729006 0.09305036
000010 2c b5 f6 be b3 a8 7a 3d 86 5b e0 bd b0 0b 85 3e
       -0.48185098 0.06119604 -0.10954957 0.2598548
000020 1e 02 6e 3e 10 29 6e 3c 91 09 0e bf c2 74 86 3e
       0.23242995 0.014536157 -0.5548335 0.26260954
000030 d1 ba 0e 3e 46 cb 14 3f 66 b1 b9 3e 2d 62 c2 3e
       0.13938452 0.5812267 0.36268157 0.37965527
000040 d9 7a 7a 3e d0 24 f0 3c 08 d5 a6 3e 19 45 e7 3e
       0.24460925 0.029314429 0.32584405 0.45169905
000050 bb 41 dc be 8e 20 a7 3d 5d f4 00 bf da c4 d3 3e
       -0.43018898 0.08160506 -0.5037287 0.41361123
000060 d3 a4 8b 3e 08 3f 17 3f a0 66 7c bc 96 f1 02 bf
       0.27274188 0.59080553 -0.015405327 -0.5114988
000070 a6 ab fe 3e e5 dd 99 bd d0 ff a1 3e 25 5e d8 3e
       0.49740332 -0.07513026 0.31640482 0.42259327
000080 42 fc 14 3f 6c bc 3f 3f d5 f9 bd be 94 0e 81 3e
       0.58197415 0.74896884 -0.3710467 0.25206435
000090 68 5e 0f bf 92 d2 57 3e 1e 7d b8 3e 4a 45 14 3f
       -0.5600343 0.2107642 0.36032957 0.57918227
0000a0 c0 39 d6 bc f6 fb 5c 3d 06 d1 44 bf 19 c8 9c be
       -0.026150584 0.053951226 -0.76881444 -0.30621412
0000b0 37 24 69 3e 14 df 63 be 72 f1 09 3e 67 f4 be be
       0.22767721 -0.22253066 0.1347101 -0.3729584
0000c0 31 99 2b 3e aa 25 ac 3e e5 d0 46 bd 3f 3c 2a 3f
       0.16757657 0.33622485 -0.04853906 0.6649818
0000d0 58 e3 be be 41 ab 97 3d e8 39 95 3e 65 6a a1 3e
       -0.37282825 0.07405711 0.2914574 0.31526485
0000e0 1b 5b ce 3e cf 6f e5 be bd e9 ac 3e 70 75 b3 bd
       0.40303883 -0.44811866 0.33772078 -0.08762634
0000f0 ea 7f 03 bf c0 39 10 3e fe 6a 6e 3e 22 45 e0 be
       -0.51367056 0.1408453 0.23283002 -0.43802744

Model61.1/decoder_3_1_depth_BN/FusedBatchNormV3 f4 [32]
000000 f0 bd d1 3f b5 c0 fe be 5e dc 3e bf 46 6a 02 3f
       1.6386089 -0.497564 -0.74555004 0.5094341
000010 a4 a1 e1 3e 88 22 44 bf da 1d 21 bf 47 4c bf be
       0.44068635 -0.7661519 -0.62936175 -0.37362882
000020 ba e9 04 bf f0 4e e9 3e 40 1c f0 3e ff 25 01 bf
       -0.5191914 0.45568037 0.46896553 -0.504486
000030 68 1f f1 3e a0 10 d0 3c 13 1f 65 bf c0 9e 1d 3c
       0.47094274 0.025398552 -0.8950054 0.0096203685
000040 42 a3 a1 be d8 1d 15 be 8b 40 22 bf 55 93 88 bf
       -0.31569868 -0.14562166 -0.63379735 -1.0669962
000050 93 c1 4c be e8 49 1f be a4 24 9f 3f 7c b3 4d be
       -0.19995718 -0.15555537 1.2433057 -0.20087999
000060 bf 45 15 bf b1 39 59 bf 88 4f 3f 3e f4 1d 02 bf
       -0.5830955 -0.84853655 0.18682683 -0.50826955
000070 57 aa b9 3e 62 fd 0c bf 5b 21 29 bf 40 d6 88 bb
       0.3626277 -0.5507413 -0.6606652 -0.004175931

Model61.1/decoder_3_1_expand_BN/FusedBatchNormV3 f4 [32]
000000 8a f6 2f 3f 00 80 78 3b 54 9e 2f bf 01 60 05 3f
       0.68735564 0.003791809 -0.68600965 0.52099615
000010 b1 c4 28 3e 04 bd a3 be 21 d5 02 be 44 1a f5 3d
       0.16481282 -0.31980145 -0.12776615 0.119679004
000020 60 2d 53 3d 9c 0e 26 3e 7f 85 1f be 6c 48 be 3e
       0.051556945 0.1621651 -0.15578268 0.37164629
000030 e8 60 9c 3e 7f bf 94 3e 80 e4 47 3d 04 da 31 3e
       0.30542684 0.2905235 0.0488019 0.17368323
000040 0d ee 14 be c4 53 c8 3e c4 e1 21 bf ef 83 0a bf
       -0.14543934 0.39126408 -0.63235116 -0.54107565
000050 c4 cd 8c 3c 50 78 bd 3e c0 63 12 3f c8 e2 ef 3c
       0.01718796 0.37005854 0.57183456 0.029282942
000060 f2 5d 2d bf 45 b9 d9 be 16 f1 b7 3e 29 45 2e 3e
       -0.67721474 -0.42524162 0.3592612 0.1701857
000070 47 ca 33 3e 42 da 74 be 86 79 df be 14 07 aa 3e
       0.17557631 -0.23911384 -0.43647403 0.33208525
